pytorch_models/TD3_AntBulletEnv-v0_0_actor.pth (torch, 496439 bytes, 6 tensors)

layer_1.weight f4 [400, 4]
000000 f5 f0 b5 3e 92 35 09 bf 18 e0 6b bc 52 39 cd 3e
       0.35535398 -0.53597367 -0.01439669 0.40082794
000010 2d ec 30 be 13 a3 46 3e 6a 22 b5 bd e1 09 d8 3e
       -0.17277594 0.19398145 -0.088444546 0.42195037
000020 f9 ef 78 3e 6f ab 92 3e f0 52 73 3e 59 22 da bd
       0.24310292 0.28646418 0.23762107 -0.106510825
000030 d9 93 f8 be 26 5a 57 3e e4 3d 9f 3c 05 10 c0 3e
       -0.485503 0.21030483 0.019438691 0.37512222
000040 b2 90 4c bf 84 69 ac be 05 9b 8e 3e e9 eb 0e bc
       -0.7990829 -0.33674252 0.27852646 -0.008723238
000050 70 49 9c bd 56 15 ea be 62 e1 86 be ae 70 f0 be
       -0.076311946 -0.45719403 -0.26343828 -0.46960968
000060 1a 58 77 3e 0e b2 ad be 5d da b5 be 97 af 09 bd
       0.24154702 -0.33924907 -0.3551816 -0.03361472
000070 86 c7 9e be a4 5d 49 be f8 68 5e be 96 be d9 3e
       -0.310116 -0.19664627 -0.2171973 0.42528218
000080 4a b3 c6 be 17 b1 07 3e da ab 47 bd d6 92 15 be
       -0.38808662 0.13251148 -0.048747875 -0.14606795
000090 24 c5 46 be 80 fb 92 3d 3e e6 83 be 98 24 f4 bd
       -0.1941114 0.07176876 -0.25761598 -0.11921042
0000a0 32 91 aa 3e a1 ad 63 3e be 9f b6 3e 80 6d 3f be
       0.333139 0.22234203 0.3566875 -0.18694115
0000b0 11 39 2e bd 28 71 13 be b2 b8 61 3e db ab 26 bf
       -0.04253489 -0.14398634 0.22043112 -0.6510598
0000c0 be da 9b 3e 7f b4 94 be 31 ed e2 be 2f 38 e5 3e
       0.30440325 -0.29043958 -0.44321588 0.44769427
0000d0 8a 34 8b 3e 78 c8 76 3e b0 81 50 3e 73 7e d4 3e
       0.27188522 0.2409991 0.20361972 0.41502723
0000e0 20 6f 26 3d 48 8f 8d be f6 1a d8 be 08 37 60 3e
       0.04063332 -0.27648377 -0.4220807 0.21895993
0000f0 c3 70 d7 be 97 e4 d3 3d fb 6e 7a 3d 1a 90 22 3f
       -0.42078218 0.103463344 0.061140995 0.6350113
000100 4e 20 ab 3b 79 4c 19 3d cb 43 7a bd 0a aa 34 3f
       0.005222357 0.037426446 -0.06109981 0.7057196
000110 e1 f1 b6 3e 8c 28 a3 be 57 e4 05 bf fd 33 e4 3e
       0.35731414 -0.31866872 -0.52301544 0.44570914
000120 63 d0 61 3e b0 08 11 be 1a c6 01 be eb aa 0a bf
       0.2205215 -0.1416347 -0.12673226 -0.5416705
000130 37 13 13 bf 84 a0 7b 3e 9f 5a 54 3d 0c a1 9a be
       -0.57451195 0.2457295 0.051844236 -0.30200994
000140 84 94 91 3c 55 28 cf be b0 89 a6 3e 8d fc 03 be
       0.017771013 -0.40460458 0.32526922 -0.12889309
000150 61 ef b2 3e 75 c7 e2 be 3d 31 31 3e 3b 54 64 be
       0.34948257 -0.442928 0.17303939 -0.22297756
000160 00 46 4c be 58 60 f6 3d 82 8a d1 be 90 36 e0 be
       -0.19948578 0.12030095 -0.40925986 -0.43791628
000170 eb 4c c9 3e a7 c7 72 be 07 ea 3f 3e 70 72 bd bd
       0.39316496 -0.23708974 0.18741618 -0.09250343
000180 71 38 23 3e 18 7e 17 3e 7a 59 2c 3e 23 1c de be
       0.159395 0.14794195 0.16831008 -0.43380842
000190 d2 07 66 3e 5a a2 10 bf 2c 08 c0 3d e4 87 ad 3d
       0.2246392 -0.5649773 0.09376559 0.08473185
0001a0 bb 58 a2 3e 21 13 2a 3e c8 5d a9 be 80 1d 07 3f
       0.3170832 0.1660886 -0.33079362 0.5277939
0001b0 f9 4f b3 3e 7a f9 bb be 96 f5 c6 3d c1 f1 dd 3d
       0.35021952 -0.36713773 0.097148106 0.108371265
0001c0 3d 33 e4 3d ef 2f a7 be 69 ba 10 3e 50 57 75 3e
       0.111425854 -0.32653758 0.1413361 0.23959088
0001d0 b6 7e eb 3d fb e9 2b 3e 08 3b f0 bd 87 b5 7c 3e
       0.114987776 0.16788475 -0.11730009 0.24678622
0001e0 5e 9a 73 3e e5 37 4a bd 64 d2 11 bf 77 93 04 3f
       0.23789355 -0.04936971 -0.56961656 0.51787513
0001f0 06 77 90 3e cd e2 db 3d 98 08 64 3e 6c 8a a9 bd
       0.28215808 0.10736618 0.22268903 -0.08278355
000200 95 0d b7 be 5c bd d1 3e 05 fd 29 be 31 18 13 3e
       -0.3575255 0.40964782 -0.16600426 0.14364697
000210 1c d8 15 3e 97 63 85 3e 44 74 f3 bd d3 bc 17 3f
       0.1463322 0.26052544 -0.1188741 0.592725
000220 4a 92 06 3f 60 be be be 80 6a 2d be a9 aa d6 3e
       0.5256697 -0.3725462 -0.16935158 0.41927078
000230 1e 9f 98 3d b6 6b 71 3e df 14 5d be ee 1f fb 3e
       0.07452224 0.23576245 -0.21589993 0.49047798
000240 c6 48 5e 3e e5 dc c3 bd 68 7d 52 3e 12 e4 c4 3c
       0.21707448 -0.09563617 0.20555651 0.024034534
000250 de 8d d7 3d 90 11 05 be b3 24 91 bc 46 c3 c2 3e
       0.10525106 -0.12994981 -0.017717695 0.38039607
000260 6b 54 ff be 82 ca 29 bd 18 9f 59 3d 64 4d ae bd
       -0.49869093 -0.041452892 0.05313024 -0.08510855
000270 07 4a 1f bf c6 2e e7 bd a1 36 18 3e b8 cc 68 bd
       -0.6222233 -0.11288218 0.1486459 -0.05683586
000280 cc f3 d7 3e 91 a6 49 3e 65 ef 04 3e 26 dd 0b 3f
       0.4217819 0.19692446 0.12981947 0.5463432
000290 7a 43 b7 be f6 d1 9b be 12 39 fa be c0 e3 5f be
       -0.35793668 -0.30433625 -0.48871666 -0.21864223
0002a0 fd 74 6e be 53 3e 46 3e c3 6c 95 3e 6f 6a ae 3e
       -0.23286815 0.19359712 0.2918454 0.34065577
0002b0 3c a0 f5 be 00 b0 be 39 5c b4 f7 be f8 bc b6 3d
       -0.47973812 0.00036370754 -0.4837979 0.08922762
0002c0 97 a7 5e bf f3 86 7c bd 39 ff 1d 3e 87 4d 0d be
       -0.8697447 -0.061652135 0.15429391 -0.13799106
0002d0 5f 92 0e bf 88 5e d9 3e ef 17 ae be b0 af 15 bf
       -0.55692095 0.42454934 -0.34002635 -0.584712
0002e0 54 36 80 bd 69 7a e4 3d c8 42 ae 3d d4 93 d4 be
       -0.06260362 0.111561604 0.08508831 -0.41519034
0002f0 a8 0e 30 be 34 6f b4 be c0 98 45 bd cc 8b 9b 3e
       -0.17193091 -0.3524109 -0.048241377 0.30380094
000300 b4 fe 61 be 84 07 c6 be 66 e6 df be 80 27 8f bc
       -0.22069818 -0.3867761 -0.43730468 -0.01747489
000310 aa 20 83 be 96 02 e9 be ae 49 fe be a0 a0 c6 bc
       -0.25610858 -0.45509785 -0.49665588 -0.024246514
000320 8d 1e e8 be bb 1b 48 3e dc ed c1 bd b5 d7 72 be
       -0.45335808 0.19541828 -0.09469196 -0.23715098
000330 ec cb b8 3e aa ec ec 3e 8c c4 99 be 77 5b 7c 3e
       0.3609308 0.4627431 -0.30032766 0.24644266
000340 67 04 50 3e ac 92 df bd 5d 70 d0 bd aa 05 ac bc
       0.2031418 -0.10916647 -0.101776816 -0.020998795
000350 b6 ac 7d 3e f6 f6 0f be 4f 77 38 bd 74 e1 6a 3c
       0.24772915 -0.14059052 -0.045035657 0.014335979
000360 a8 a0 96 be e4 cb 4d be 98 de 86 be 90 87 4b be
       -0.29419446 -0.2009731 -0.263417 -0.19875932
000370 c7 ac f6 3e b2 cb a4 be 77 ca 31 be e7 c2 0d 3f
       0.48178694 -0.32186657 -0.1736239 0.5537552
000380 2a b9 d4 3e 40 30 97 be 9e 13 2f 3e 4d 7e 81 3e
       0.4154752 -0.29529 0.17097327 0.25291672
000390 88 ac 75 be 08 cf 30 be d8 ef df bd 28 80 8c 3d
       -0.23991597 -0.17266476 -0.109344184 0.06860381
0003a0 64 fd 75 be 70 58 1a 3d 58 b7 c2 be 68 17 34 3e
       -0.24022442 0.037681997 -0.38030505 0.17587054
0003b0 f1 9b a4 be f3 dc 03 be ef 56 a4 3e 71 bf 8f be
       -0.32150224 -0.12877254 0.32097575 -0.28075746
0003c0 90 30 d1 be b8 ae 2b be d0 d8 11 be 28 ff d6 3d
       -0.40857363 -0.16765869 -0.14242864 0.10497886
0003d0 09 77 b6 3d da 87 16 3e d4 5f 99 bd 10 53 a9 3e
       0.08909423 0.14700261 -0.07488981 0.33071184
0003e0 d3 13 cb be f8 01 a1 bc 96 fb a6 3d d9 a2 bd 3c
       -0.39663562 -0.01965426 0.08153455 0.02314894
0003f0 b0 7a db be 18 c1 8b 3e 15 fe 07 be cf f7 36 bd
       -0.4286704 0.27295756 -0.13280518 -0.044669922

layer_1.bias f4 [400]
000000 c6 47 e4 3e d2 e5 1a 3e e5 82 a4 3e e7 5f ab 3e
       0.4458601 0.15126732 0.32131115 0.33471605
000010 9b b5 3e 3e 86 1d a9 3e 2a b7 b8 be 80 ea fe 3d
       0.18623964 0.33030337 -0.36077243 0.12447071
000020 fd 58 2a be 90 ef 78 3d 4e 44 cd be 62 be 63 3e
       -0.16635509 0.06077534 -0.40091175 0.22240594
000030 fa 91 f5 3d 5f 97 4f 3e ca d5 b8 be ab b1 43 bd
       0.119907334 0.20272587 -0.36100608 -0.04777686
000040 f6 7f fa be a7 09 a4 3e c6 57 cf bd bb f5 ce be
       -0.4892575 0.32038614 -0.10124163 -0.40421852
000050 4a c6 59 be 7d 7f 94 3e ac 60 cb be 6c be 99 3d
       -0.21267048 0.29003516 -0.39722192 0.07507023
000060 2e b0 38 be 76 e3 12 3f 8a 05 d6 3e 42 b9 85 3e
       -0.18035957 0.5737833 0.418011 0.26117903
000070 21 09 08 be 1e 0f 56 3e b9 50 94 be 93 ee 49 3e
       -0.13284732 0.20904204 -0.28967836 0.19719915
000080 02 6d ef 3e 1f fb 63 be 50 7a 83 be 70 79 2c 3e
       0.46762854 -0.22263764 -0.25679255 0.168432
000090 bf d9 91 3e 04 c5 01 3e 76 df 17 bd 67 9a 50 be
       0.2848644 0.12672812 -0.037078343 -0.203714
0000a0 9f f7 70 bc 90 41 cf be 4a ee 45 be da 53 8f be
       -0.014707475 -0.40479708 -0.19329181 -0.2799366
0000b0 9a 20 82 be 67 40 34 3e 7e 44 86 be 9e 2a a7 be
       -0.25415498 0.17602693 -0.2622413 -0.32649702
0000c0 04 7d d3 be 90 c9 71 bd 09 16 f0 bc b8 c1 13 be
       -0.41306317 -0.059030116 -0.029307382 -0.14429367
0000d0 8a 31 b3 3e 07 d4 c8 3e 90 5e 87 bd 08 e5 cb 3d
       0.34998733 0.39224264 -0.06609833 0.099557936
0000e0 a3 ef 82 3e c8 a0 43 3e 4e 9a ad be 0e dd 65 3e
       0.25573453 0.19104302 -0.33906788 0.22447607
0000f0 42 d9 cd 3e 4b 64 e8 be ef 52 45 be 43 69 29 3d
       0.40204817 -0.45389017 -0.19269918 0.04136015
000100 00 19 d1 bc 5b 54 60 be d1 d8 f4 be 20 02 01 bf
       -0.025524616 -0.21907179 -0.47821668 -0.5039387
000110 6a 03 06 bf 7d 0b 04 bf 0d b8 af be ea 38 b4 bd
       -0.5234896 -0.5158003 -0.34320107 -0.08799918
000120 b8 cd f2 bd a0 ec 3b bf 44 f6 03 3e 35 8e a5 be
       -0.11855644 -0.73407936 0.12886912 -0.32335058
000130 70 20 92 3e b2 51 df be 55 db 6f 3d 3a e5 f6 be
       0.28540373 -0.43617016 0.05855878 -0.4822176
000140 41 ae 85 3e 7e e4 b2 3e c7 3a 8b be 36 ef 9b 3e
       0.26109508 0.3493995 -0.2719328 0.3045594
000150 db 3d 72 3e 40 10 75 bc 87 50 eb 3e 1c a4 8c be
       0.23656408 -0.014957488 0.45959875 -0.27468956
000160 d0 56 09 3e 4a 04 0e be ac dd 04 3e b5 86 60 3e
       0.13412023 -0.13868824 0.12975186 0.21926387
000170 74 3e a2 3e c9 67 ca be 9d a1 61 3e b4 1e 4e 3e
       0.31688273 -0.39532307 0.22034307 0.201289
000180 eb f2 f2 be ba ee 59 be 3e 6e 48 be 8e 28 e8 be
       -0.47450957 -0.21282473 -0.19573304 -0.4534344
000190 65 82 06 3f 18 f2 43 be 1b 45 a9 3e 36 fe 28 3e
       0.52542716 -0.1913532 0.33060536 0.16503224
0001a0 fa 0d ab 3e fb d0 19 be cd a1 f9 bc 33 ec 10 3e
       0.334091 -0.15021126 -0.03047266 0.14152603
0001b0 c7 ea 57 be 16 62 69 be 8d 4b cd 3e ce 4c 04 bf
       -0.21085654 -0.22791323 0.40096703 -0.51679695
0001c0 24 9c 46 3e 4e 89 3f be c1 fa a1 be 92 1f a1 3e
       0.193955 -0.18704721 -0.31636623 0.314694
0001d0 aa fc c6 3e 0e 90 2b be 73 49 4e bd 12 e6 de be
       0.38864642 -0.16754171 -0.050363015 -0.43534905
0001e0 48 09 8e be 3c 04 de be 4a f7 ea be c4 fc c0 be
       -0.27741456 -0.43362606 -0.45891792 -0.37692845
0001f0 a8 f2 ab bd 75 88 99 be 61 bd d6 be 4f 01 ce 3e
       -0.083958924 -0.2998692 -0.4194136 0.40235373
000200 50 37 c4 be 66 00 c6 be 29 99 9b 3e f3 29 a9 3e
       -0.3832345 -0.3867218 0.3039029 0.33039817
000210 f1 bd c2 be 7c ac fe 3e 1a 1c ad 3e 6d 4a e4 be
       -0.3803554 0.4974097 0.33810502 -0.44588032
000220 32 00 e1 3e 1b af e0 be 6f 54 e4 bd 05 83 65 be
       0.43945462 -0.43883595 -0.11148917 -0.22413261
000230 52 be a6 3e 8b 66 c1 be d5 79 8a be de 06 c0 be
       0.32567078 -0.37773547 -0.27046075 -0.3750524
000240 80 03 b0 3b a6 62 f5 be 72 04 4d be 72 ef 22 3d
       0.005371511 -0.47926825 -0.20021227 0.039779134
000250 bb 94 74 3e 0b d7 51 be bf 25 08 be 98 df 75 3e
       0.23884861 -0.20492189 -0.13295649 0.24011075
000260 96 86 55 be f8 54 76 be cb e0 6c 3e eb ef 48 be
       -0.20852122 -0.2405585 0.23132627 -0.19622771
000270 52 4d bb be 0b f9 d1 be a3 29 24 bf 5b e0 ae 3e
       -0.36582428 -0.41010317 -0.6412603 0.34155545
000280 8b 02 64 3e dd 3c 14 3e 57 3f 33 bf d3 03 d3 be
       0.22266595 0.14476342 -0.70018524 -0.41213855
000290 f7 c8 d3 3e a0 93 10 bd b7 46 51 be 64 d0 ca 3e
       0.41364262 -0.035297036 -0.20437132 0.39612114
0002a0 90 2f d1 bd e4 98 2d be a8 41 9d be 12 1e e9 be
       -0.1021415 -0.16952854 -0.30714154 -0.45530754
0002b0 2c f5 ee 3e e4 f6 8d be fa 3f 32 bf 46 d0 8e 3c
       0.46671426 -0.27727425 -0.6962887 0.017433297
0002c0 a4 80 c9 be 03 03 9a 3e 28 21 09 3e c6 e8 00 3f
       -0.39355958 0.30080423 0.13391554 0.50355184
0002d0 70 48 21 bd 9a 91 ca bd 99 a8 c7 be 14 fa e3 3e
       -0.039375722 -0.098910525 -0.38995817 0.44526732
0002e0 98 0b 4b be bc dd 59 be c3 6f 65 be 79 8e ca be
       -0.19828641 -0.21275991 -0.22405915 -0.39561823
0002f0 00 4a a6 be e4 be 25 bf 60 76 9b 3e bf 32 b4 3e
       -0.32478333 -0.647444 0.3036375 0.35194966
000300 e4 ac 2b bf 6f ce 35 3d 21 ec 0a 3e 30 82 ef be
       -0.67060685 0.044386324 0.13566639 -0.46779013
000310 bc 40 65 be e0 74 85 3e 81 4f 3b 3e f8 ac 99 3d
       -0.22387975 0.2606573 0.18292047 0.07503694
000320 52 ff ce 3e 40 e9 22 be ef 12 0a bf f9 b8 11 be
       0.4042917 -0.1590929 -0.5393514 -0.14230718
000330 bb ff 86 be 7c 45 0c be 56 39 b6 be a7 a0 ec 3d
       -0.26366982 -0.13698381 -0.3559062 0.115540795
000340 87 43 99 be 56 3e f3 be 11 d3 53 3e 0b 5d 2c be
       -0.29934332 -0.47508496 0.20685984 -0.16832368
000350 d0 70 ec be d0 7f 61 bd 9e 7b 01 be e4 06 b1 be
       -0.4617982 -0.055053532 -0.12644812 -0.3457557
000360 04 af 62 3e bb 86 b2 be 84 83 40 be 6f e9 c3 bd
       0.22137076 -0.34868416 -0.18800169 -0.09566008
000370 66 db f0 be 08 1b 6f 3e 68 66 4e 3c 6a f8 ee be
       -0.47042388 0.23350155 0.012597658 -0.466739
000380 c7 93 83 bd 07 a8 ec 3e 6c 57 aa be a8 09 ec bd
       -0.06424671 0.46221945 -0.33269823 -0.11525279
000390 83 69 8c 3e 0f f8 1b 3e 51 9b 3e 3e ec 1a 98 bd
       0.2742425 0.15231346 0.18613936 -0.0742701
0003a0 b1 cd db be f2 c1 a2 bb 28 2c 2b bc f8 4a 3a be
       -0.42930368 -0.0049669677 -0.010447539 -0.18192661
0003b0 b3 7d 84 be ec 82 eb be 11 2e 43 be 77 2f 63 3e
       -0.2587715 -0.45998323 -0.19060542 0.22186075
0003c0 ca b4 d8 3e 28 cd 8c 3d f3 b9 d8 3d a2 80 f5 be
       0.4232543 0.06875068 0.10582342 -0.47949702
0003d0 17 b1 9b bd fa 4c 1d 3d d8 d9 38 3e 50 95 37 3e
       -0.076021366 0.03840349 0.18051851 0.17928052
0003e0 04 ab df be bb bf 3d be d2 43 9e 3e 30 34 ee be
       -0.43685162 -0.1853017 0.30911118 -0.4652419
0003f0 60 b1 3f bd a4 8b 15 bf 0b 96 bb bd 7c d5 67 be
       -0.046800017 -0.584162 -0.09159478 -0.22640032

layer_2.weight f4 [300, 400]
000000 14 47 43 bd a1 37 f4 bc 49 2f 58 bd d2 bb bf 3c
       -0.047675207 -0.029811682 -0.05277947 0.02340499
000010 6e b1 bc 3c 83 92 c3 bc db bd 45 3d c7 03 de bc
       0.023033824 -0.023873573 0.048276763 -0.02710141
000020 b4 9e 37 3c 44 5a 79 3c ba 74 e6 3c 39 27 11 3d
       0.011207271 0.015219275 0.028131831 0.035437796
000030 9f d1 40 bd f3 04 f9 bc 98 a4 ff bb 7c f3 67 3c
       -0.04707491 -0.030397868 -0.0078016035 0.014157172
000040 c3 e9 2d 3b 79 8d 41 3d ed 98 57 bc 7d 9f 8b bc
       0.0026537038 0.04725406 -0.013159019 -0.017043823
000050 a7 0c 9d 3c e3 9b 30 bd e2 70 f8 3c 26 0d 33 3d
       0.019171072 -0.043117415 0.030327264 0.04371371
000060 22 7f 3a 3c 2a 06 4b bd 45 da bd 3c 3e e1 15 bd
       0.01138285 -0.049566425 0.023175368 -0.03659176
000070 0b 56 07 3c a3 93 2e 3d 50 ff a6 3b d7 d5 6f 3c
       0.00826026 0.042621266 0.0050963536 0.014638386
000080 a2 e9 23 3c 99 c8 bf bc 30 35 46 3c b6 89 e1 3c
       0.010004433 -0.023411082 0.012097642 0.027531486
000090 f9 f9 23 bc 8a 95 b1 bb 70 2d 31 bd 0b 5a 4b bb
       -0.010008329 -0.005419438 -0.043256223 -0.0031029012
0000a0 2e 0b 4a bd 83 aa 39 bd 59 8a 69 bc 05 b2 04 3d
       -0.049327068 -0.04532863 -0.014254176 0.032396335
0000b0 26 ca 26 3d 49 31 87 bb b0 fa 01 3c 45 94 17 3d
       0.040720128 -0.0041257483 0.007933304 0.037006635
0000c0 fd 23 1c 3d 2b 3e 0d 3d a6 27 87 bb 20 d9 17 bb
       0.03812026 0.034483116 -0.0041245995 -0.0023170188
0000d0 67 6b 9a 3a 8c 6c 03 bd e3 b9 08 3d 17 9f 56 bd
       0.0011781276 -0.03208594 0.0333804 -0.052397814
0000e0 a6 5a 7f bc a0 0f 0b 3b 00 47 2a bb 7e 1b f2 3b
       -0.015585577 0.002121903 -0.002598226 0.007388531
0000f0 7d ea 18 bd c9 ce 8a bc 29 ac e0 3c 4d 36 34 3d
       -0.037333 -0.016944306 0.027425842 0.043997098
000100 da 2d ee 3c 29 d7 01 3d c9 1a e5 bc 77 e2 f9 bc
       0.029074598 0.031699333 -0.027966874 -0.030503495
000110 74 a9 a6 bc 16 6c 99 3c e0 7d 22 3c a4 1e 8d 3c
       -0.020344473 0.018728297 0.009917706 0.017226525
000120 6c 20 20 3b a2 7a 2f bd f4 e5 10 3c 4a ee f5 bc
       0.0024433387 -0.04284156 0.008843888 -0.030020852
000130 54 c8 31 bd 22 46 06 bd 67 a1 e9 ba e4 06 83 bc
       -0.04340394 -0.032781728 -0.0017824591 -0.015994497
000140 89 71 b0 3c 1e 64 ce bc 8a 63 2c bb 62 95 0f 3d
       0.021538513 -0.025194224 -0.0026304447 0.035054572
000150 a9 3e 07 bd c6 16 a4 3c 16 9e 1e 3d ab 78 ef 3c
       -0.03301874 0.02003039 0.03872498 0.029232344
000160 a8 64 11 3c bf 4d 85 3c 9a aa eb bc 40 af 18 bd
       0.008874096 0.016272424 -0.028767873 -0.037276506
000170 fa 27 d5 3c 93 16 1b 3d 1b 1c 9c bc 6f e4 2a bd
       0.026020039 0.037863325 -0.01905637 -0.041721758
000180 62 58 ba 3c e7 a4 1b 3d b9 30 14 3d b0 3a 34 bb
       0.022747222 0.03799906 0.036179278 -0.00275008
000190 63 53 41 bd 90 72 be bc c2 74 03 3d 85 c8 3b bd
       -0.047198664 -0.023247987 0.03209377 -0.045845527
0001a0 96 12 96 bc 1e 65 e0 3c 97 5e b2 bc 00 e0 01 b7
       -0.01831941 0.027391966 -0.02177362 -7.741153e-06
0001b0 7e 50 7a 3c 9c 3d 42 bd bb fa 14 bd 26 48 fc bc
       0.01527798 -0.047422037 -0.036371928 -0.030796122
0001c0 32 1f dc bc d4 d8 1d bd 90 b8 e4 bc bc b0 9d bc
       -0.026870344 -0.03853686 -0.027920038 -0.019249313
0001d0 bc d9 8b bc e9 15 1c 3d 00 24 2f bd e3 83 19 bd
       -0.017071597 0.038106833 -0.04275894 -0.037479293
0001e0 0e 44 b8 3c 66 c1 59 3c fc 25 03 bd 5f 14 3b bd
       0.022493389 0.013290739 -0.032018647 -0.045673724
0001f0 1f 89 45 bd 3e 85 64 bb 3a d1 8c bc a3 2e c3 bc
       -0.048226472 -0.0034869458 -0.01718961 -0.023825949
000200 60 0c 4d bc 68 a6 e8 3b 56 9f 2a bd 16 6d 9f 3c
       -0.012515157 0.0070999153 -0.04165586 0.019461196
000210 3d 4a f3 bb 6d a0 22 bd 24 7e 42 bb 71 bd 1e bd
       -0.0074246214 -0.039703775 -0.0029677236 -0.038754884
000220 ab 37 4a 3d d3 8a a2 bc 9a 7a f3 bc 27 99 32 3d
       0.049369495 -0.019841587 -0.029721547 0.04360309
000230 46 e5 06 3d 59 a1 2e 3d 0e 64 de 3c d5 ca 16 3d
       0.032933496 0.042634342 0.02714732 0.03681453
000240 f0 cb 9c 3b b3 3c 9f 3c 63 ef c8 bc 4e a4 e4 bc
       0.0047850534 0.019438123 -0.024528211 -0.027910378
000250 f5 d2 3d bc 01 43 b3 3c ec 6e e2 bb c7 db d8 bc
       -0.011585941 0.021882536 -0.0069101956 -0.026471986
000260 37 db 3d bd 75 a5 12 bd dc 44 3f 3c c1 fc 12 3d
       -0.046351638 -0.035802323 0.011674132 0.035885576
000270 6f e2 0e 3c b0 b5 b5 3c 93 c9 d3 bc 7a 8e ac bc
       0.008720978 0.022181362 -0.025852954 -0.021064032
000280 57 ce 3f 3d 60 30 19 3d be 6f b7 bc cd b4 8f bb
       0.04682764 0.03739965 -0.02239215 -0.004385567
000290 dc 79 32 bd ce 5f 32 bd ce 80 5e 3c b9 f1 c8 bc
       -0.043573245 -0.043548398 0.013580514 -0.024529325
0002a0 82 14 c3 3c 8b 9f 34 bd a7 ff 1b 3c 57 43 f8 bc
       0.02381349 -0.044097465 0.0095214015 -0.030305548
0002b0 94 88 60 3c a2 b1 bc 3c 8a ce fb 3b db d6 42 bd
       0.013704438 0.02303392 0.0076845335 -0.047568183
0002c0 96 ff db 3c 34 b5 33 bd 0a e1 f3 3c 85 73 8e bc
       0.026855271 -0.04387398 0.029770393 -0.017389068
0002d0 be 3e 05 bd 43 89 4b bc cd 1a fb 3c 55 b8 d0 3c
       -0.03253054 -0.012422862 0.030652428 0.025478521
0002e0 c6 2d 99 bc 6c 9a 64 bc ea ea 27 3c e2 be d8 3c
       -0.018698584 -0.013952833 0.010248879 0.026458208
0002f0 ba 62 18 3d 10 1c 30 bc aa 31 d7 3c a9 1a 2c 3d
       0.037203528 -0.010748878 0.026268799 0.042017613
000300 26 c2 50 bd 61 c6 ad 3c e1 9e 27 bd 68 87 48 3c
       -0.050966404 0.021212758 -0.040923003 0.012239315
000310 83 1e bb bc cd 93 02 3d 67 9e 28 bd 79 84 3a bd
       -0.022841698 0.031879235 -0.04116669 -0.045536492
000320 d8 a4 ca 3b f7 0d cf 3b 26 89 d6 bc 3e ea 2f 3c
       0.0061842017 0.0063188034 -0.026188444 0.010737
000330 17 ab 3e 3d 18 b5 b3 bb c0 19 20 bc cf f7 05 3b
       0.046549883 -0.0054842345 -0.009771764 0.0020441895
000340 67 b2 0d 3d 23 ab 15 bd ff 26 02 3d d6 a6 02 bd
       0.034593966 -0.03654016 0.03177547 -0.03189739
000350 ca aa c7 bc 0a 85 3f bd 08 69 43 bc 18 d4 03 3d
       -0.02437343 -0.046757735 -0.011926897 0.03218469
000360 e2 05 ae 3b 60 5d 0e 3d 27 04 02 bd 45 96 b7 3c
       0.00531076 0.034757018 -0.03174224 0.022410521
000370 be 40 e0 3c 19 3b 48 bc c2 2d d5 3c 9a fe d6 3c
       0.027374621 -0.012221121 0.026022796 0.02624445
000380 7b 67 a5 3c 7b c9 2e bd 0a 21 b4 bc 7c 90 6c 3c
       0.020190945 -0.042672615 -0.02198841 0.014438745
000390 8b c6 46 bd a1 6e 5f 3c 50 9a 86 3c 11 0c 3a bd
       -0.04852919 0.013637216 0.016431004 -0.045421664
0003a0 3c a2 3a 3d 46 cf 99 3c b4 2d 84 bc e9 36 21 3d
       0.045564875 0.018775593 -0.016135074 0.039359007
0003b0 83 f9 cb 3c d7 6a 33 bd 4a 5f 17 bd d8 33 27 3c
       0.02489925 -0.043803062 -0.03695611 0.010205232
0003c0 7d fe 21 3d e0 61 2a bd e7 a3 03 3d c3 2c d7 bc
       0.03954934 -0.041597247 0.03213873 -0.026266461
0003d0 92 1a 4f bd 2d 6d 0b 3d 28 ce d3 bb 4c d9 49 bc
       -0.05056245 0.034039665 -0.0064637847 -0.012319874
0003e0 00 29 92 3b 3a 2e 48 bd 33 fa 31 bd bf 59 27 bd
       0.004460454 -0.04887221 -0.0434515 -0.040857073
0003f0 58 36 3e bc ff dd 38 bd 13 70 3b bd 54 91 50 bc
       -0.011609636 -0.045133587 -0.04576118 -0.012729961

layer_2.bias f4 [300]
000000 5c 2f 11 3c 42 d2 88 3c b2 42 82 bb 21 22 38 ba
       0.008861389 0.016701821 -0.003975236 -0.00070241286
000010 ee a2 60 bb 90 3c 14 bd 8d fb fc bc ba 17 90 bc
       -0.00342768 -0.03619057 -0.030881668 -0.017589439
000020 75 4e 45 3d 4a 64 4b bd d2 77 6f 3c 20 39 48 bd
       0.048170526 -0.04965619 0.01461597 -0.048882604
000030 90 84 58 bd a8 2e a1 3c af 10 88 3c 08 69 00 bc
       -0.052860796 0.019675568 0.016609518 -0.007837541
000040 60 8e 52 bc 4c 19 32 bd 09 07 12 bd ab 59 18 3c
       -0.012851328 -0.043481156 -0.03565124 0.009298722
000050 9a 39 dd bc 09 16 34 bd f2 2f b0 3c 1a ae 37 bd
       -0.027005006 -0.043966327 0.021507237 -0.04484377
000060 d8 24 4d bc 79 b1 06 3d e1 b4 23 3d 16 5d 90 3c
       -0.012520991 0.032884095 0.03996742 0.017622512
000070 81 05 4d bd 5d e9 68 bd 77 2d 57 3c 85 16 aa bb
       -0.050054077 -0.056863178 0.013133398 -0.005190673
000080 c3 62 23 bd 09 02 11 3d f7 b6 84 3c 99 92 74 ba
       -0.03988911 0.03540233 0.016200526 -0.0009329706
000090 61 49 c6 3c b0 81 8d ba d7 fe da 3c 62 2a 96 bb
       0.024204912 -0.0010796096 0.026732845 -0.004582689
0000a0 6f 19 26 bb e4 54 c2 bc 94 a8 c1 3a f8 4d d4 bc
       -0.002534475 -0.02372212 0.0014774972 -0.025916085
0000b0 a5 88 83 bc ce 78 4a bd 1a 59 73 3b 45 2f 17 bd
       -0.016056368 -0.049431615 0.0037131966 -0.036910314
0000c0 7e 04 10 bd 04 2f 57 3c d8 8d fc 3c b7 82 29 3c
       -0.035160534 0.013133768 0.030829355 0.010346106
0000d0 0e 9f f1 bc ce 70 77 3d 91 78 c6 3c f7 26 2a bd
       -0.029494788 0.060410313 0.024227412 -0.041541066
0000e0 e5 74 8b 3c 47 12 c2 bc f8 dc f0 bc de 5d d8 3d
       0.017023513 -0.023690356 -0.029402241 0.10564779
0000f0 f7 70 0e 3c 04 36 13 bc 5d aa cb 3c 8e a5 26 bd
       0.008693925 -0.008985046 0.024861509 -0.04068523
000100 be 6e 30 3d 50 f7 36 bb 35 e4 cb bb 60 8c 58 bc
       0.043074362 -0.0027918406 -0.0062222728 -0.013217062
000110 75 ea bb 3c 7c f0 74 3c d2 37 15 3d 5f ea 37 3c
       0.022938946 0.014949914 0.036430188 0.011225312
000120 7e cd ad 3c fb 21 cb bc e8 69 f6 3a 0b 5b e5 bb
       0.02121615 -0.024796477 0.0018799873 -0.0069993786
000130 01 fc 98 bd bf d7 a6 bc 60 c4 08 b8 01 b6 04 3d
       -0.07469941 -0.020366548 -3.2607815e-05 0.032400135
000140 36 34 d1 bc 38 2f d2 3c e7 28 fa bc 00 e6 0e 3a
       -0.025537591 0.025657281 -0.030537082 0.0005451143
000150 62 2d aa 3c e3 b3 38 bd 77 e6 29 3d 7b 29 19 bd
       0.020773593 -0.04509343 0.041479554 -0.037393074
000160 4d 78 01 bd c1 58 13 bd 76 19 2e 3d 10 6a a5 3c
       -0.03160887 -0.035973314 0.04250475 0.020192176
000170 9e 85 74 3c 4d 5b 7b bc c0 3e ed bc 80 9b aa bc
       0.014924435 -0.015341592 -0.028960586 -0.020826101
000180 c7 44 4b 3c 78 84 02 3c 12 c6 47 bd d8 f3 38 bd
       0.0124065345 0.007966153 -0.04877288 -0.045154423
000190 7d f6 1f bd c7 0d 4a bb 08 8d 5f bd 2c 90 70 bc
       -0.03905343 -0.0030830966 -0.054577857 -0.014682811
0001a0 c1 7b e1 bc 4c ba 09 3c 3d 2e 80 bd 25 83 0c 3d
       -0.02752483 0.008406233 -0.06258819 0.034304757
0001b0 db fd 95 3b 53 4b 53 3c 63 b2 20 bd 40 3a 04 bc
       0.004577381 0.012896377 -0.039232623 -0.0080705285
0001c0 db bd 26 bd 57 16 6a 3c d9 7c e5 3b 4b 3c d7 bc
       -0.040708404 0.014287553 0.0070034084 -0.026273867
0001d0 63 bc c0 ba 36 44 b6 bc da d7 28 3c 50 29 38 bd
       -0.0014704581 -0.022249322 0.010305369 -0.044961274
0001e0 81 0d d5 3c 65 2c 0d 3c 97 f8 a5 bc fb fb a4 3b
       0.026007416 0.0086165415 -0.020260138 0.005034921
0001f0 aa 7d f0 3c 6e b3 43 bd 76 37 a1 bc 16 77 99 3c
       0.029356796 -0.04777854 -0.019679766 0.018733542
000200 8e 5d 29 bd d9 e2 12 bc 62 a3 22 bd 0e 41 24 3d
       -0.041348986 -0.0089652175 -0.039706595 0.040101103
000210 ed d6 a9 3c d1 11 e6 3c 4a a7 e4 bb f9 49 7f ba
       0.020732367 0.028084667 -0.00697795 -0.0009738501
000220 1e c8 39 bd a4 89 d2 bc 1a bc 3b ba fe 1d 4c bd
       -0.045356862 -0.025700398 -0.0007161513 -0.04983329
000230 84 6c d3 3c 85 28 4b bd a1 43 05 3b e7 4c d0 bc
       0.02580858 -0.04959919 0.00203345 -0.025427295
000240 b8 84 30 bd d3 a6 04 3b e1 42 a9 bc 6f ff ff bc
       -0.04309532 0.0020241037 -0.020661773 -0.03124973
000250 66 de 8e bc c4 f9 13 3b 8b c7 9c bb 74 63 1d 3d
       -0.017440032 0.0022579292 -0.0047845296 0.038424924
000260 3d ab 55 bd dd 22 47 bd de 36 ff bc 4b 51 83 3c
       -0.05216526 -0.048617233 -0.031154092 0.016029974
000270 dc a4 55 bd 6e a6 56 3c c7 08 67 3d fe 18 00 3d
       -0.052159175 0.013101203 0.056404855 0.031273834
000280 04 1d 01 3d 02 01 a3 bc fa 9a d9 3c 34 44 12 bc
       0.031521812 -0.019897941 0.026563156 -0.008927394
000290 74 c2 40 bd 60 a4 1d 3c 7a 83 df bc 0d 75 17 3d
       -0.047060445 0.00962171 -0.027284373 0.036976863
0002a0 be 79 04 bd 21 92 77 bb 44 85 94 bc 8b a7 e7 3c
       -0.032342665 -0.0037776309 -0.018129952 0.028278133
0002b0 a5 f3 9f bc c7 f5 36 bc 96 ce 15 bd f6 10 1c bd
       -0.019525358 -0.011166996 -0.03657397 -0.038102113
0002c0 ea 54 dd bc 3d 4b 93 3c 80 3a 37 bd c9 f3 e5 bc
       -0.02701803 0.017980212 -0.044733524 -0.028070347
0002d0 7c 19 40 3b b0 82 86 ba 44 66 15 3d 99 ef 36 bc
       0.0029312065 -0.0010262337 0.03647448 -0.011165523
0002e0 08 ad 9b 3c e0 de 19 3c 87 a9 4f bd 1b fc ca 3b
       0.019003406 0.009391516 -0.050698783 0.006194604
0002f0 fb e2 9f bc 25 2d 9e bd ca 35 9f 3c d7 a0 77 3d
       -0.019517412 -0.077234544 0.019434828 0.060456123
000300 75 f6 8d 3b bd 16 05 bd 59 9a 38 3d 82 38 1e bc
       0.0043323585 -0.032492388 0.045069072 -0.009657027
000310 a5 9e 89 bd dd ec 15 3d ca 0b e5 ba 69 3c 18 3d
       -0.06719712 0.036602844 -0.0017474827 0.037166987
000320 c2 27 cd 3c d9 49 8a bd 7d b2 04 3d 63 cc 08 3d
       0.025043372 -0.067523666 0.032396782 0.033398043
000330 a8 43 28 bd 6f 33 c3 bb 6d ec b3 bd 18 b5 ec bc
       -0.041080147 -0.005957059 -0.08785329 -0.028894946
000340 a2 35 3b ba 93 7c 1a 3d 53 f2 07 bd fc 48 4c bd
       -0.0007141476 0.03771646 -0.033190083 -0.04987429
000350 db b5 1a bd cb c0 41 bd 65 4c 90 bc 95 d5 d7 bc
       -0.037771087 -0.047303002 -0.017614553 -0.026346961
000360 c4 83 01 bc be b1 86 bb 92 3f 0e bd 36 48 48 bd
       -0.0079049505 -0.004110544 -0.034728594 -0.04889699
000370 a0 3d eb bc a5 87 c2 ba 03 1f da bc 13 a9 49 ba
       -0.028715909 -0.0014841451 -0.026626116 -0.00076927355
000380 82 d7 3b bd 40 09 fc bc ec 47 82 bb 23 91 92 ba
       -0.04585982 -0.03076613 -0.003975859 -0.001118217
000390 86 0d 41 bd 24 24 75 3c ea f4 03 3d 0e cb 81 bc
       -0.047132038 0.01496223 0.03221599 -0.015843894
0003a0 35 ef d4 bb 14 90 48 bd 14 13 d7 3b b7 63 d9 bc
       -0.0064982423 -0.04896553 0.0065635536 -0.026536806
0003b0 c7 78 9c 3b 6a 15 0e bd 45 a0 f5 bc 82 e5 45 3d
       0.00477514 -0.03468839 -0.029983649 0.04831458
0003c0 09 4b 20 3c 4f a3 39 bd 63 58 e4 3c 80 44 01 bd
       0.009783515 -0.04532176 0.027874177 -0.031559467
0003d0 f6 c4 44 bd 44 2b 91 bc dc 7a 47 bd 60 86 32 bd
       -0.0480394 -0.017720826 -0.048701152 -0.04358518
0003e0 5a 99 ab 3c c2 e0 d5 bc 6a 80 8c bd 13 b2 db 3b
       0.020947147 -0.02610815 -0.068604305 0.0067045777
0003f0 95 32 37 bd 26 79 6a 3b cb de 39 bd ba 01 46 bd
       -0.044725973 0.0035777777 -0.045378488 -0.04834149

layer_3.weight f4 [4, 300]
000000 7f 2e 94 3b f8 32 47 bd c3 de 1c bd a7 92 02 be
       0.0045221443 -0.048632592 -0.03829838 -0.12751256
000010 c3 a0 20 3d 6d 28 3c bd a6 3a 10 3c 18 7b 4b 3d
       0.039215814 -0.04593699 0.008803045 0.04967794
000020 7a 5f 88 bc a6 81 1e bd 56 65 70 3d 08 8a 89 bb
       -0.01664709 -0.03869786 0.05869039 -0.004197363
000030 0f 43 44 bd bd 9d ae bc b6 bd 3b bc 20 6f 37 bc
       -0.047915515 -0.02131545 -0.011458805 -0.011195928
000040 4c 7e 2c bd fd fb 38 bd 6f 33 01 3c 74 de 37 bd
       -0.042112634 -0.04516219 0.007885798 -0.044889882
000050 47 2a 34 3d a2 a9 07 bd 97 1f ba bc 83 2c 46 bd
       0.04398563 -0.03312076 -0.022720141 -0.048382293
000060 9c 6e 50 bd 12 c2 37 bd 32 c5 53 3d f2 23 9e 3c
       -0.050886735 -0.044862814 0.051701732 0.01930425
000070 8b b1 f1 ba fc c0 3f be 4f 40 cd bb 0c dc 96 3c
       -0.0018439753 -0.18725961 -0.0062637697 0.018415473
000080 29 db 78 3d 2a fe d6 bc 58 9c 89 3c b0 30 5f 3c
       0.060755882 -0.026244242 0.016798183 0.013622448
000090 e5 ae f3 bb 2a 34 9b bc 37 ee d4 3d 91 90 2d 3d
       -0.0074366205 -0.018945772 0.103969984 0.042374197
0000a0 91 71 9c b9 fc 3e 1e bd d1 e0 e0 bc aa e4 b0 bc
       -0.00029839252 -0.038634285 -0.02745095 -0.02159341
0000b0 0b 4d b2 3c e9 68 0b bc d7 d5 00 3d ac f4 81 3c
       0.021765253 -0.008508899 0.031453934 0.015863739
0000c0 52 de a6 bd a8 7b 3f bc 88 8d d3 bb 02 ee 18 3d
       -0.08147873 -0.011687197 -0.006456081 0.037336357
0000d0 97 7c 0a bd c9 3c 76 bd f0 48 89 3b 8f 23 69 bc
       -0.033810224 -0.060116563 0.004189603 -0.014229669
0000e0 24 c8 d4 bc 68 29 e8 3c ce aa 2e bd a2 b4 a4 bd
       -0.02597434 0.028340057 -0.04264336 -0.080422655
0000f0 d8 48 77 bd 57 06 ab 3d 5e b2 9b bd e1 5b e8 3c
       -0.060372204 0.083508186 -0.0760238 0.028364124
000100 f5 37 1a 3d 40 60 d5 bb 60 eb 4a bd a7 4c 6a 3d
       0.03765102 -0.006511718 -0.049540877 0.057202008
000110 a5 95 2c bd 7d dd 39 bd 10 eb 18 bc 03 3d bd bc
       -0.0421349 -0.045377243 -0.009333387 -0.023100382
000120 ab 2f 70 3c de af 53 3d 6c 2b 67 bd 51 a0 3e bd
       0.014659802 0.051681392 -0.056437895 -0.04653961
000130 63 8d 93 bb 05 53 1f 3d a4 83 28 3d 35 b3 2e bd
       -0.0045029386 0.038897533 0.041141167 -0.042651374
000140 53 e6 03 3d 5a f1 30 bc 1c a1 39 bd d4 9e 64 bc
       0.032202076 -0.01079973 -0.04531966 -0.013953883
000150 60 4d c3 bb 2d f8 00 bb f9 7e 3b 3d 29 2d 50 bc
       -0.0059601516 -0.0019679174 0.045775387 -0.0127060795
000160 18 bc 5d bc f4 ff 7e bd 7e af 65 3c ad 7f 5c 3c
       -0.013533615 -0.062255815 0.014018891 0.013458175
000170 f4 27 08 bd 47 85 2e bd 47 03 0a bd b7 85 d0 3c
       -0.033241227 -0.042607572 -0.03369453 0.025454385
000180 ff 43 58 3d 85 3d d8 3a 64 c6 65 3d b9 63 ab 3c
       0.05279922 0.0016497826 0.056097403 0.020921575
000190 80 45 bd bb 6e cf 32 3c c3 7f 50 bd 14 25 c5 bd
       -0.0057761073 0.010913713 -0.050903093 -0.09626213
0001a0 0c a8 30 bd 90 67 02 bb 91 ae 42 bd 7a 2e 1c ba
       -0.043129012 -0.0019898154 -0.04752976 -0.0005957853
0001b0 e4 87 08 3b 12 d5 c1 3d c7 ce 35 bd 7a 6d 82 bc
       0.002083295 0.09464468 -0.04438665 -0.015921343
0001c0 40 b5 c5 3a 0e 4e 4d bd e1 ba a4 3b d8 04 c1 3c
       0.0015083924 -0.050123267 0.0050271605 0.02356188
0001d0 61 4c 22 bd 07 42 90 bb bf 8b 1f 3b 72 35 79 3b
       -0.03962362 -0.0044024023 0.002434477 0.003802624
0001e0 aa 1d 60 3d 63 6f d8 3d b0 97 56 3d d9 28 89 bb
       0.05471579 0.1056812 0.052390754 -0.0041857776
0001f0 07 ae 11 bd 9c 3a fd 3c fd 85 7e 3c 45 6e 14 3d
       -0.035566356 0.030911736 0.015534875 0.036237974
000200 71 d8 7e 3c 6a 9c 02 be 5c 0f 1c bd 30 cc 3c bd
       0.015554533 -0.1275498 -0.038100585 -0.046093166
000210 2d 91 3d bd d8 3a c4 bc 5c 7f 0b 3d 9b b2 17 bd
       -0.04628103 -0.02395384 0.034057006 -0.037035566
000220 cc 72 07 bc c2 37 01 3d ed c4 05 3c 40 5d 0c bb
       -0.008267116 0.031547315 0.008164627 -0.0021417886
000230 df 27 09 bc e1 50 3f bc f0 3c 5e bc 80 4f fb 3c
       -0.008371322 -0.011676998 -0.013564333 0.030677557
000240 58 d1 2d bd 37 70 9d 3c 4f f3 7d 3d 24 33 43 bc
       -0.042435974 0.019218547 0.061999615 -0.011914048
000250 80 ca 98 bb c4 17 16 bd bf c1 83 3c 58 51 89 3b
       -0.0046628118 -0.03664376 0.016083596 0.004190605
000260 08 85 10 bd 62 f5 de 3c 0d 94 ce bd 84 d9 3f bd
       -0.03528312 0.027216617 -0.10086832 -0.0468383
000270 a0 4b ce 3c d2 14 bd bc 05 79 04 be 62 29 43 bd
       0.025182545 -0.023081217 -0.1293679 -0.047646888
000280 df 45 38 bd 3a 0e 67 bb 4c 15 df bc 9e a0 0e bd
       -0.04498851 -0.0035256282 -0.027231835 -0.034821145
000290 9b 89 ac 3c 86 6e 54 3d 0b b3 bd bc 84 61 54 3d
       0.02106171 0.051863216 -0.023156663 0.05185081
0002a0 66 ec 3c bd 1e 89 76 3d 1e 30 82 bc 82 1f 12 bd
       -0.046123885 0.06018936 -0.015892085 -0.03567458
0002b0 e4 54 0e bd 35 77 56 3d 01 cf 5f 3d a3 6e 19 bd
       -0.034748927 0.05235978 0.054640774 -0.037459027
0002c0 c1 06 d0 3c 89 42 26 3c 4c ad 1f 3d a7 a6 f8 bc
       0.025393846 0.010147699 0.03898363 -0.030352904
0002d0 13 70 50 bc 50 a6 b6 bc 44 3e 5a bd a5 25 ea 3c
       -0.012722033 -0.0222961 -0.053282037 0.028582403
0002e0 69 48 50 bd f1 08 2b bb f1 1b 35 bc d2 49 94 3c
       -0.050850306 -0.0026097859 -0.011054025 0.018101607
0002f0 0c 20 85 bb 6d c7 9c bc 85 91 a7 bc ec 17 1e 3c
       -0.004062658 -0.019138062 -0.020455131 0.009649258
000300 52 b7 15 bd e3 f5 07 3c 10 38 6d bc 05 77 df bb
       -0.03655178 0.00829837 -0.014478698 -0.006819608
000310 1f 96 b7 bb 46 1e d4 bc a3 3c 1c bd 2c 5a c9 bd
       -0.0056026126 -0.025893342 -0.038143765 -0.09831652
000320 74 bf b7 bc 45 8c de 3a 0f 99 b2 bc d4 9a df bc
       -0.02243016 0.001697906 -0.0218015 -0.027295507
000330 40 21 03 3b c2 5a 3e 3d f8 ab 6b bd c6 99 dd 3b
       0.0020008832 0.046473272 -0.05753705 0.006762716
000340 78 70 52 bc 0b 2b 63 bc 39 3b bd 3b 61 c8 9d 3c
       -0.012844197 -0.013865243 0.005774882 0.019260587
000350 e6 08 08 3d 14 bd 16 bd c5 42 29 3d 70 de c7 3c
       0.03321161 -0.036801413 0.041323442 0.024398059
000360 ef 6a e2 bc f9 62 0e 3b 59 65 82 3d 28 86 31 bd
       -0.02763888 0.0021726473 0.06366987 -0.043340832
000370 4d a3 37 bd 8a f5 f9 bc 53 de 97 3d 7c 0b 05 bd
       -0.04483347 -0.03051259 0.07415452 -0.032481655
000380 d4 9e 6d 3d cd 4c 1d bd b6 2d 0b 3d b1 3a 2d 3c
       0.0580128 -0.03840332 0.03397914 0.010573075
000390 3a dc c6 bc ce 8a 89 bc f7 c8 df 3c 8f c1 0f bd
       -0.024274934 -0.01678982 0.027317507 -0.0350967
0003a0 92 9b 18 3c 14 18 13 3c c5 c2 c9 bc b0 1c 28 3d
       0.009314435 0.008977909 -0.024629006 0.041042984
0003b0 e4 19 06 bd 74 25 45 3d 50 d4 79 bb 20 1e 09 3d
       -0.032739535 0.04813142 -0.0038120933 0.033475995
0003c0 6c f3 df 3c b7 22 4e bd f9 4e c3 3c dd c5 22 bd
       0.027337752 -0.050326075 0.023841368 -0.03973948
0003d0 bf 65 0f be b4 58 d1 bc df 18 72 bc 3d e7 f8 bc
       -0.14003657 -0.025554992 -0.014776438 -0.0303837
0003e0 a4 d7 6f bc 9e 9b eb bc 53 cb 1d 3d 9b e3 4b bc
       -0.014638815 -0.028760727 0.038523983 -0.012444402
0003f0 3f d6 f4 bb f0 1a 8c bc 35 d8 14 bb 41 7f d1 3c
       -0.007471829 -0.017102689 -0.0022711877 0.025573375

layer_3.bias f4 [4]
000000 be a5 c9 bd 0a 19 86 bd 0e 03 40 39 d3 f6 9e 3c
       -0.09846066 -0.065477446 0.00018311685 0.019404804
