pytorch_models/TD3_AntBulletEnv-v0_0_critic.pth (torch, 997863 bytes, 10 tensors)

layer_1.weight f4 [400, 8]
0	0x3d249bd0	0.040187657
1	0xbda55474	-0.08072749
2	0xbe994f07	-0.29943106
3	0x3d190670	0.037359655
4	0xbe80b5e6	-0.25138777
5	0xbdac12e4	-0.084020406
6	0xbeaa641a	-0.33279496
7	0x3e59f926	0.21286449
8	0x3d9999a7	0.0750001
9	0xbee84fc0	-0.45373344
10	0xbe63f15f	-0.22260045
11	0xbe4ea702	-0.20180896
12	0xbf97ae72	-1.1850111
13	0xbdb97a3f	-0.0905652
14	0x3f4e6004	0.8061526
15	0x3eaa0d8d	0.33213463
16	0xbd815aa3	-0.06316116
17	0x3e469054	0.19390994
18	0xbe7e5369	-0.24836506
19	0x3f091f04	0.5356295
20	0x3ebd46df	0.36968133
21	0x3edbcab5	0.4292809
22	0xbdecacb4	-0.11556378
23	0x3f4a6d48	0.79073
24	0xbe9720a0	-0.29517078
25	0x3b059d80	0.0020388067
26	0xbe9225ea	-0.2854455
27	0x3df504ec	0.119638294
28	0x3e86b2cf	0.26308295
29	0x3dcc8dfc	0.09988019
30	0x3dc45878	0.095871866
31	0xbe35281e	-0.17691085
32	0xbb7a2f60	-0.003817521
33	0xbda1e231	-0.07904471
34	0x3ca10bf3	0.019659018
35	0xbe1f0f3d	-0.15533157
36	0x3f06fb45	0.52727157
37	0x3f1bbf97	0.6083922
38	0xbec9f6fb	-0.39446244
39	0xbf554fa7	-0.83324665
40	0xbb9cbae5	-0.0047830218
41	0xbbab9cdc	-0.005237205
42	0x3e22e752	0.15908554
43	0xbaf119ea	-0.0018394564
44	0xbdba0b5f	-0.090842
45	0x3e595bf3	0.21226482
46	0xbeaf937c	-0.3429221
47	0xbeac869e	-0.33696455
48	0xbe439ed9	-0.19103564
49	0xbca75cb0	-0.020429939
50	0xbe2d99ce	-0.16953203
51	0x3ea1578d	0.31512108
52	0x3dc7eb60	0.09761691
53	0xbdc7c720	-0.09754777
54	0x3da3bc34	0.07994881
55	0xbe7e171e	-0.24813506
56	0xbd942677	-0.07233899
57	0xbdd8c345	-0.1058412
58	0x3ea00770	0.31255674
59	0x3d39426a	0.045229353
60	0x3d84a387	0.06476503
61	0xbf29c720	-0.66319466
62	0xbd0907ec	-0.03345482
63	0x3f743d39	0.9540592
64	0xbe0f203d	-0.13977142
65	0x3e16142e	0.14656135
66	0xbe92a35e	-0.28640264
67	0xbd883d5c	-0.06652328
68	0x3dcbcf54	0.09951654
69	0x3e77030a	0.24122253
70	0x3d318d70	0.043347776
71	0x3d461170	0.048356473
72	0xbbd63a19	-0.0065376875
73	0xbd41ee05	-0.047346134
74	0xbe8266fb	-0.25469193
75	0x3e943cc2	0.28952605
76	0xbe9e4fe3	-0.30920324
77	0xbe979287	-0.2960398
78	0x3d36151a	0.044453718
79	0x3d0abe83	0.033873092
80	0xbdc849ec	-0.097797245
81	0x3dc58790	0.09644997
82	0xbdc9062d	-0.09815631
83	0x3f04f881	0.51941687
84	0x3f7a891b	0.97865456
85	0xbff73e5a	-1.9315903
86	0xbf02de9e	-0.51120937
87	0xbf806f12	-1.0033896
88	0x3cd8e2fe	0.026475426
89	0xbd794bf9	-0.06086347
90	0xbe45deaf	-0.19323228
91	0xbd2e520a	-0.042558707
92	0xbe4285e6	-0.1899639
93	0xbf167308	-0.58769274
94	0x3e90beb7	0.28270504
95	0xbd563c86	-0.052303813
96	0x3a3b0efe	0.0007135718
97	0xbd720993	-0.059091162
98	0x3c277ab6	0.010222128
99	0x3e150d9f	0.14555977
100	0xbeaff726	-0.34368247
101	0x3f0c192e	0.5472592
102	0xbec385b0	-0.38187933
103	0xbef17318	-0.47158122
104	0xbeae55ab	-0.34049734
105	0xbe91c3c1	-0.2846966
106	0xbe5f855e	-0.2182822
107	0xbe9b37f1	-0.30316117
108	0x3dcfb5e8	0.10142118
109	0xbeae768f	-0.34074828
110	0xbd936b30	-0.07198179
111	0x3ea4e435	0.32205358
112	0xbd81fd44	-0.06347135
113	0xbc2c7f3c	-0.010528382
114	0x3dd96f1a	0.10616894
115	0x3dcb5ba1	0.09929586
116	0xbcb27e01	-0.021788599
117	0x3ef295a3	0.4737979
118	0xbe082a61	-0.13297416
119	0x3e978f87	0.2960169
120	0xbcec7331	-0.028863521
121	0xbeb07da4	-0.34470856
122	0x3dc08e39	0.09402127
123	0xbdeb57de	-0.11491369
124	0xbf20f2db	-0.6287057
125	0x3df1f892	0.11814989
126	0x3d53c570	0.051701963
127	0xbf2b7854	-0.6698048
128	0x3d6c91b1	0.05775613
129	0xbf03105d	-0.51196843
130	0x3e05d6c1	0.13070203
131	0xbd2bd11b	-0.041947465
132	0xbe045cab	-0.12925975
133	0xbed44456	-0.41458386
134	0xbf1bf9c5	-0.60927993
135	0xbf3aa5c2	-0.72909176
136	0xbdcd8847	-0.100357585
137	0x3d554256	0.052065216
138	0xbe231484	-0.15925795
139	0xbd53e97b	-0.051736336
140	0xbeeed3cf	-0.46645972
141	0xbf13271a	-0.5748154
142	0xbf1d7e68	-0.61521006
143	0x3e84c637	0.25932476
144	0x3da0ecc7	0.07857662
145	0xbeb64a7b	-0.356037
146	0xbe2b50b2	-0.16730002
147	0x3d8856c9	0.06657178
148	0x3f01a74d	0.50645906
149	0xbf0e614f	-0.5561723
150	0x3ec8f431	0.39248803
151	0x3cff4063	0.031158632
152	0x3c81dfd0	0.015853792
153	0x3d63dbe0	0.05562961
154	0xbe8d3892	-0.27582222
155	0xbe4eb319	-0.20185508
156	0xbd831a6c	-0.06401524
157	0xbd7959a0	-0.06087649
158	0xbe1148a8	-0.14187872
159	0x3d89ebec	0.06734452
160	0x3ce5e9b2	0.028065536
161	0xbcb6d5f4	-0.022318818
162	0x3c5c925f	0.013462632
163	0xbda48504	-0.08033183
164	0x3edf31e5	0.43592754
165	0x3ee71f33	0.4514099
166	0x3db1caa9	0.086812325
167	0xbfb9d356	-1.451762
168	0xbe3767b9	-0.17910661
169	0xbe9b46d0	-0.30327463
170	0xbe49e614	-0.19716674
171	0xbd9f9a18	-0.07793063
172	0xbddc5194	-0.10757747
173	0x3ce7ad00	0.028280735
174	0xbdda05ae	-0.106456146
175	0xbe4159fe	-0.18881986
176	0x3df13deb	0.11779388
177	0x3e2cd877	0.1687945
178	0xbea9ebd8	-0.33187747
179	0xbd56227f	-0.05227899
180	0xbe44f279	-0.19233121
181	0xbf43f8aa	-0.76551306
182	0x3e14e673	0.14541034
183	0x3e19d22e	0.15021583
184	0x3d248a27	0.040170815
185	0x3d50bbec	0.050960466
186	0xbe801f0f	-0.25023696
187	0xbe623ff3	-0.22094707
188	0xbfc3798f	-1.5271472
189	0xc0033947	-2.050371
190	0x3ed43cd6	0.41452664
191	0x3f0a0f28	0.53929377
192	0xbd84113f	-0.06448602
193	0x3e892f72	0.2679401
194	0xbde6e773	-0.11274614
195	0x3d87765a	0.06614371
196	0xbf0df2a0	-0.5544834
197	0xbd1566a8	-0.036474854
198	0xbeab8880	-0.3350258
199	0x3dfe7037	0.12423747
200	0xbed05ef8	-0.40697455
201	0x3c8f94f2	0.017527077
202	0x3cb3e67c	0.02196049
203	0x3ab8ae3c	0.0014090012
204	0x3cde4684	0.027133234
205	0xbfaad984	-1.334763
206	0xbe31ae30	-0.17351604
207	0x3f19bbb8	0.6005206
208	0x3d81b798	0.06333846
209	0xbd93066b	-0.071789585
210	0xbe68e471	-0.22743393
211	0x3dcd3b06	0.100210235
212	0xbefe0b0e	-0.4961781
213	0xbe8e2994	-0.27766097
214	0x3db9a83c	0.09065291
215	0x3d9b22b4	0.075749785
216	0xbeea9caa	-0.4582265
217	0x3c2a9070	0.010410413
218	0xbe4b8e3c	-0.19878477
219	0x3ea271ea	0.31727535
220	0xbf0223a4	-0.50835633
221	0x3eed85f7	0.4639127
222	0xbe31c045	-0.17358501
223	0x3e1b0659	0.1513914
224	0xbeb1248b	-0.34598193
225	0x3e54dbf4	0.2078703
226	0xbe8a2314	-0.26979887
227	0x3e484484	0.19557387
228	0xbe8a2693	-0.26982555
229	0x3e032abe	0.12809274
230	0xbc856790	-0.016284734
231	0xbe2a824c	-0.16651267
232	0x3dcc1393	0.09964671
233	0xbdb83275	-0.08993999
234	0xbeb3fcec	-0.35153902
235	0xbbb6547a	-0.0055642696
236	0xbf285e55	-0.6576894
237	0x3ece897c	0.40339267
238	0xbeb65069	-0.35608223
239	0xbe65ad49	-0.22429384
240	0x3cc520e1	0.02406353
241	0x3d92807a	0.07153411
242	0xbea7bd09	-0.3276141
243	0xbddfe180	-0.109316826
244	0xbe70048d	-0.23439236
245	0xbe74513a	-0.2385911
246	0xbd7ee7f8	-0.06223294
247	0x3d9afaf7	0.07567399
248	0x3e05a8d1	0.1305268
249	0xbe69b3ce	-0.22822496
250	0xbed83917	-0.42231056
251	0xbe05018c	-0.12988871
252	0x3e00b04f	0.12567256
253	0xbf015454	-0.505193
254	0xbe9f58a0	-0.31122303
255	0x3ed71408	0.4200747

layer_1.bias f4 [400]
0	0xbcee7960	-0.02911061
1	0xbe9bef9d	-0.30456248
2	0x3f05d4a0	0.52277565
3	0x3a09ee00	0.00052616
4	0xbd236836	-0.039894305
5	0xbf8c5943	-1.096474
6	0xbe82a048	-0.2551291
7	0x3e8119f5	0.25215116
8	0xbd308a40	-0.043100595
9	0x3b7c9062	0.0038538207
10	0x3e68479d	0.22683568
11	0x3e2a95f2	0.16658762
12	0x3f5ea997	0.86977524
13	0x3dc1bd20	0.09459901
14	0xbf420ad9	-0.757978
15	0x3c9bbdf2	0.019011471
16	0x3c54521a	0.012959028
17	0xbebf1c20	-0.37326145
18	0x3ec7c168	0.39014745
19	0xbe8d78cb	-0.2763122
20	0x3e1cefc7	0.15325843
21	0x3dc74cd4	0.09731451
22	0x3f20027e	0.625038
23	0xbeb055a2	-0.34440333
24	0xbef70173	-0.48243293
25	0xbeaf7d5a	-0.34275323
26	0x3f4dc505	0.8037875
27	0xbea6d120	-0.32581425
28	0xbea7623a	-0.32692128
29	0x3f1a6a51	0.60318476
30	0xbd8d85e0	-0.069103
31	0x3f5634eb	0.83674496
32	0x3f38affb	0.72143525
33	0x3ea8493b	0.3286837
34	0xbeed78bf	-0.46381184
35	0xbe1283f6	-0.14308152
36	0xbda07f1c	-0.07836744
37	0xbe967cce	-0.29392093
38	0x3e5de5a6	0.21669635
39	0xbf8857e9	-1.0651828
40	0xbec144de	-0.37747854
41	0xbf77ba93	-0.96769065
42	0xbf4f83eb	-0.81060666
43	0xbe3d5d38	-0.18492591
44	0xbe5d95d2	-0.21639183
45	0xbe9afbfe	-0.3027038
46	0xbdcee721	-0.10102678
47	0x3f40099d	0.7501467
48	0x3ed8880d	0.42291299
49	0xbd82a693	-0.06379428
50	0xbf0c8e26	-0.549044
51	0x3de8aca8	0.113610566
52	0xbebb0308	-0.3652575
53	0x3e6c12e7	0.23054086
54	0xbec41574	-0.38297617
55	0x3f4b779e	0.79479396
56	0x3f288c88	0.65839434
57	0xbf818cb2	-1.0121062
58	0x3f21f647	0.63266414
59	0xbf5661de	-0.83743083
60	0xbe2f9c26	-0.1714941
61	0x3f25001e	0.64453304
62	0xbf6cef4a	-0.92552626
63	0x3e8411e9	0.25794914
64	0x3e6288b6	0.22122464
65	0xbc39c880	-0.011339307
66	0xbf16db06	-0.58927953
67	0xbf7d3433	-0.98907775
68	0x3f39a0ed	0.7251118
69	0xbf6da353	-0.9282734
70	0x3e09fd85	0.13475616
71	0xbf82c8c3	-1.0217518
72	0x3f7a1459	0.976873
73	0xbc9f9b90	-0.019483358
74	0x3ce34874	0.02774451
75	0x3ecfe1e9	0.40602043
76	0x3f0b0ea5	0.5431922
77	0x3e26c08e	0.16284391
78	0xbe868017	-0.262696
79	0xbe49bae1	-0.19700195
80	0xbdb7db74	-0.08977404
81	0xbeb73b37	-0.35787365
82	0x3dc2abc6	0.095054194
83	0xbeeca7cc	-0.4622177
84	0x3e91cd2c	0.28476846
85	0xbf78cc46	-0.97186697
86	0xbe925d21	-0.28586677
87	0xbe5ad954	-0.21371967
88	0xbe333f5d	-0.1750464
89	0xbf57bfce	-0.84277046
90	0x3de1a6c3	0.110181354
91	0xbef95bbd	-0.48702803
92	0x3f7d5bfa	0.9896847
93	0x3f0aedde	0.54269207
94	0xbf1940d5	-0.5986455
95	0xbe2d572c	-0.16927785
96	0x3f6c584a	0.9232222
97	0xbf3bdc4c	-0.7338302
98	0xbf88fae4	-1.0701566
99	0xbf580d60	-0.8439541
100	0x3d2aa42e	0.04166048
101	0x3d5e0410	0.054203093
102	0x3f59413f	0.8486518
103	0x3e81bff0	0.2534175
104	0xbe684686	-0.22683153
105	0x3e1bfe4e	0.15233728
106	0x3dfc8f31	0.12331999
107	0x3f9cc050	1.2246189
108	0x3d17e30a	0.037081756
109	0xbf4f63a4	-0.81011415
110	0xbebc62f7	-0.36794254
111	0xbf5c5605	-0.86068755
112	0xbea106ba	-0.31450444
113	0xbe645cfa	-0.22301093
114	0x3e40726a	0.18793646
115	0xbe2e3c38	-0.17015159
116	0xbf26f05a	-0.652105
117	0xbf2bf64c	-0.67172694
118	0x3e733b33	0.23753051
119	0xbe840be8	-0.25790334
120	0xbf1cdaa6	-0.6127113
121	0xbf6bc230	-0.9209318
122	0xbe45cb56	-0.19315848
123	0x3e220681	0.15822794
124	0x3f094ac4	0.5362971
125	0x3f4c8c51	0.79901606
126	0x3e52f659	0.20601787
127	0x3f592dca	0.84835494
128	0xbf4a4feb	-0.79028195
129	0x3ee16502	0.44022375
130	0x3f5b6fc5	0.8571742
131	0x3e581710	0.21102548
132	0xbe98c4cd	-0.29837647
133	0xbf366b35	-0.71257335
134	0xbf08c5a1	-0.5342656
135	0x3d9624d4	0.07331243
136	0x3f7b2317	0.9810042
137	0xbd52d34e	-0.051471047
138	0xbe3ea910	-0.1861918
139	0xbf6d7a0c	-0.92764354
140	0x3df9adeb	0.12191375
141	0xbe6b95c1	-0.23006345
142	0xbf17bf24	-0.5927603
143	0x3e81893a	0.25300008
144	0x3ea809d9	0.32820013
145	0x3f4f1c6a	0.8090273
146	0x3ec4b6f0	0.3842082
147	0x3df497e3	0.119430326
148	0x3d302c40	0.04301095
149	0xbe786d3a	-0.24260417
150	0xbe146a65	-0.14493711
151	0xbe8f89a4	-0.280347
152	0x3f4b104d	0.7932175
153	0xbf22b916	-0.6356367
154	0xbf5bbca4	-0.8583472
155	0xbf51166b	-0.8167483
156	0x3f3bf74d	0.73424226
157	0xbf31a59d	-0.6939333
158	0x3f2b570c	0.669297
159	0xbd60e8ae	-0.0549094
160	0x3f4ee582	0.8081895
161	0xbf731411	-0.94952494
162	0x3f073475	0.5281442
163	0xbdeb5f23	-0.11492755
164	0x3df3cd53	0.11904397
165	0xbf368dca	-0.713101
166	0xbea6e0a1	-0.32593253
167	0x3f12e135	0.5737489
168	0xbf44c7d6	-0.76867425
169	0xbe2c1fa5	-0.16808946
170	0xbeb93b24	-0.36177933
171	0x3e7fa9fa	0.24967185
172	0xbf4efc47	-0.80853695
173	0x3e077436	0.13227925
174	0xbf2e9e2d	-0.6821011
175	0x3ecb2b6f	0.39681575
176	0xbe50adff	-0.20378874
177	0xbf734877	-0.9503245
178	0x3efad505	0.48990646
179	0xbcd51c53	-0.026014483
180	0xbf88c347	-1.0684594
181	0xbf491708	-0.7855077
182	0xbf2849b0	-0.6573744
183	0xbecf33f8	-0.40469337
184	0x3f582bce	0.8444184
185	0xbf89c482	-1.0763094
186	0xbe3442b2	-0.17603567
187	0xbe6db473	-0.23213367
188	0xbf2a15b2	-0.66439354
189	0xbf336c2f	-0.7008695
190	0xbeb1f5d5	-0.34757867
191	0xbf59520b	-0.8489081
192	0x3ed5f975	0.41791883
193	0x3e196a66	0.14981994
194	0xbf245930	-0.6419859
195	0x3f2837da	0.6571022
196	0x3e53fff3	0.20703106
197	0x3ce6c2b0	0.028169006
198	0xbf16cdbb	-0.5890767
199	0xbf4d6f07	-0.8024754
200	0x3ea5201d	0.32251063
201	0x3ef55e56	0.47923535
202	0xbf4c75ce	-0.79867256
203	0xbf47b1ca	-0.7800566
204	0x3eb0f6cf	0.345633
205	0x3ddc8bcc	0.10768852
206	0xbd578248	-0.05261448
207	0x3e4707b8	0.19436538
208	0x3e6beb7f	0.23039053
209	0xbe1b8820	-0.15188646
210	0x3f575a43	0.84122103
211	0x3f2a1b72	0.6644813
212	0x3e8ed300	0.27895355
213	0xbea5b9a2	-0.3236819
214	0xbf3312f8	-0.6995082
215	0xbf49a1dd	-0.7876261
216	0x3e807a65	0.2509338
217	0xbf2c914c	-0.67409205
218	0x3e5c871a	0.21535912
219	0xbf461a80	-0.77384186
220	0x3dc858c0	0.09782553
221	0xbf6f7e81	-0.93552405
222	0x3f3ae15e	0.73000133
223	0xbc6efca0	-0.014586598
224	0x3d38d59d	0.045125592
225	0xbf5defa2	-0.86693776
226	0xbf077911	-0.5291911
227	0xbe305c3f	-0.17222689
228	0xbf6d9343	-0.9280283
229	0xbf0a272f	-0.5396604
230	0x3df9e3b0	0.12201631
231	0xbfa1ab6c	-1.2630439
232	0xbf623fde	-0.88378704
233	0xbf4d1936	-0.80116594
234	0x3d4e6a18	0.050394148
235	0xbf15089c	-0.5821626
236	0x3f15b82d	0.58484155
237	0x3f532952	0.82484925
238	0xbd72e212	-0.05929763
239	0xbed1f807	-0.41009542
240	0x3f80982e	1.0046442
241	0x3eab569f	0.33464524
242	0xbf3449cb	-0.704251
243	0xbdeb7934	-0.11497727
244	0x3f1fbb96	0.6239561
245	0xbe4490b9	-0.19195832
246	0xbf6f0b6d	-0.9337681
247	0xbeb1c01c	-0.3471688
248	0xbcf28740	-0.029605508
249	0xbe86fdf4	-0.26365626
250	0x3f6c6c32	0.9235259
251	0xbdc6dfa4	-0.09710625
252	0x3f12d96f	0.5736303
253	0xbd304cd5	-0.043042023
254	0xbf7dbc39	-0.9911533
255	0xbf277a62	-0.65421116

layer_2.weight f4 [300, 400]
0	0x3c162a80	0.009165406
1	0xbca2c2d8	-0.0198683
2	0xbd0a7402	-0.03380204
3	0x3a5a0a80	0.00083176047
4	0xbcd93510	-0.02651456
5	0x3cc5fbde	0.024167951
6	0xbc90358a	-0.017603654
7	0x3be7d471	0.0070748855
8	0x3c904742	0.017612103
9	0xbd2fbb83	-0.042903434
10	0xbd3cc2f0	-0.046084344
11	0xbcfd1527	-0.030893875
12	0x3cc9a8ca	0.024616618
13	0xbb18d220	-0.0023318604
14	0x3d21524b	0.03938512
15	0xbd0ca257	-0.034334507
16	0xbd678584	-0.056523815
17	0x3cddcfa7	0.027076555
18	0xbcb4490f	-0.022007493
19	0x3c020098	0.007934712
20	0xbce7e966	-0.028309535
21	0x3ce79282	0.028268103
22	0xbd80e4c7	-0.06293636
23	0xbca28775	-0.019839982
24	0xbd3f6bb6	-0.04673358
25	0xb9abb800	-0.00032752752
26	0xbca4d817	-0.02012257
27	0xbd468a9d	-0.048472036
28	0xbd0618b0	-0.032738388
29	0x3c4dd35f	0.012562602
30	0xbd0b7dbd	-0.03405546
31	0xbc8c9898	-0.017162606
32	0xbda13343	-0.078711055
33	0xbaf6c9a0	-0.00188284
34	0x3c793a3c	0.015211638
35	0xbb8328a3	-0.004002647
36	0xbc96ebf4	-0.018423058
37	0xba9c8ea0	-0.0011944361
38	0xbca8387c	-0.020534746
39	0xbd4c0e7d	-0.049818505
40	0x3d19e325	0.037570138
41	0x3d466cef	0.04844373
42	0x3cac11c2	0.021004561
43	0xbcb0ba53	-0.021573221
44	0x3d4c43eb	0.04986946
45	0x3d0fbc4f	0.035091694
46	0xbccfc459	-0.02536218
47	0x3b758a7a	0.0037466572
48	0xbc5e6eb1	-0.013576196
49	0x3c40d223	0.0117688505
50	0xbcdf171f	-0.027232705
51	0x3b891f98	0.0041846745
52	0xbc8327ef	-0.016010253
53	0xbc349fac	-0.011024397
54	0xbcf930d7	-0.030418796
55	0x3b45fa16	0.0030208877
56	0x3c431a38	0.0119081065
57	0xbd8fb3c8	-0.070167124
58	0xbd763b35	-0.060115058
59	0xbd0ee396	-0.03488501
60	0xbad227c0	-0.0016033575
61	0xbb99e498	-0.00469644
62	0x3c800101	0.015625479
63	0xbc96cf7a	-0.01840948
64	0xbc25ed94	-0.010127444
65	0x3c7c9014	0.01541521
66	0xbcf3d466	-0.029764365
67	0xbd49560f	-0.049154337
68	0xbcb2fcc6	-0.021849047
69	0xbc24f3f6	-0.01006793
70	0xbc023280	-0.00794661
71	0xbc1d28a0	-0.009592205
72	0xbd368ec5	-0.04456975
73	0xbd266ec0	-0.040632963
74	0xbd215668	-0.039389044
75	0xbd2ae375	-0.041720826
76	0xbc9a4c0d	-0.018835092
77	0xbd35d561	-0.044392947
78	0xbc150220	-0.009094745
79	0xbd44a988	-0.04801324
80	0x3c201788	0.009771235
81	0xbd4b9db6	-0.04971095
82	0xbca0ee40	-0.019644856
83	0xbd0f345d	-0.034962047
84	0x3d1f3901	0.038872723
85	0x3bed02ca	0.0072329985
86	0x3acb5dc0	0.001551561
87	0xbc70bcd8	-0.014693461
88	0x3d0d007f	0.0344243
89	0xbd151003	-0.036392223
90	0xbd48ebbd	-0.049052943
91	0xbc219428	-0.009861983
92	0xbbbf06a8	-0.005829651
93	0xbc9b744f	-0.018976359
94	0xbd4c2dd0	-0.049848378
95	0xbd0c47c4	-0.03424813
96	0xbda4181a	-0.080124095
97	0xbd067c50	-0.032833397
98	0xbd544015	-0.051818926
99	0xbcc6ea9b	-0.02428179
100	0xbce982d1	-0.028504761
101	0x3d28b8f9	0.04119203
102	0x3a9948dd	0.0011694689
103	0x3d1d218d	0.038362075
104	0x3bcc0a90	0.006226845
105	0xbd065872	-0.03279919
106	0x3c5ba8e4	0.013406966
107	0xbc7de720	-0.015496999
108	0x3c22f8ec	0.009947043
109	0xbd12138e	-0.03566318
110	0x3d1958c7	0.03743818
111	0x3d006bf1	0.03135294
112	0xbc045fc0	-0.008079469
113	0xbd4081d8	-0.04699883
114	0xbb3e9d1e	-0.0029085348
115	0x3afacdce	0.0019134821
116	0xbc4c05ca	-0.012452552
117	0xbc0f3500	-0.0087406635
118	0x3c92fdfd	0.017943377
119	0x3d43bd9b	0.047788244
120	0x3c05fb08	0.008177526
121	0xbbfee2ad	-0.0077784867
122	0xbcc48d9a	-0.023993302
123	0xbcff9417	-0.031198544
124	0xbc77bf75	-0.0151213305
125	0xbbf330e8	-0.0074216016
126	0xbba013e8	-0.0048851855
127	0xbd369905	-0.044579525
128	0xbc9acfad	-0.018897856
129	0xbd1baa86	-0.03800442
130	0xbd46b756	-0.048514687
131	0x3d4c8719	0.049933527
132	0x3a130400	0.0005608201
133	0xbd9a4245	-0.07532171
134	0x3c328d14	0.010897893
135	0xbd2f63b8	-0.04281971
136	0xbc41b53e	-0.011822997
137	0xbd0e93b0	-0.034808815
138	0xbd3241c7	-0.04351976
139	0xbc94e8cc	-0.018177412
140	0xbb84d218	-0.0040533654
141	0xbca7c96d	-0.02048179
142	0x3cbb18f2	0.022839043
143	0x3cf897e8	0.030345872
144	0xbbf206a8	-0.0073860474
145	0xbc10fab6	-0.008848837
146	0xbc8e1d0a	-0.017347831
147	0xbcf23c12	-0.02956966
148	0x3c9bada2	0.019003693
149	0x3cf32ab6	0.029683452
150	0xbcbbd63d	-0.022929305
151	0xbcc2c4a7	-0.023775412
152	0xbca1016f	-0.019654004
153	0xbd3d6b47	-0.046244886
154	0xbcfbb374	-0.030725218
155	0xbd8de452	-0.06928314
156	0xbd0f58c6	-0.03499677
157	0x3ce6732e	0.028131094
158	0xbce0e2aa	-0.027451832
159	0xbd9ebdea	-0.07751067
160	0xbd7a5e2d	-0.06112497
161	0xbce82535	-0.028338054
162	0x3b666fe1	0.00351619
163	0xbc666ee0	-0.014064521
164	0xbce6fb41	-0.02819598
165	0xbc93f508	-0.018061176
166	0x3c7b39df	0.015333622
167	0xbda36f7f	-0.079802506
168	0xbd4256f9	-0.047446225
169	0xbd04dd4c	-0.032437608
170	0x3d0bf3d7	0.03416809
171	0x3d2e4cad	0.042553592
172	0x3c5761c1	0.013145865
173	0xbd967b13	-0.07347693
174	0xbd38ddb2	-0.0451333
175	0x3bb822a8	0.0056193657
176	0xbcedb990	-0.029019147
177	0xbbd1340e	-0.006384379
178	0xbcd7fbc7	-0.026365174
179	0xbcb31ad9	-0.021863388
180	0xbd94735b	-0.07248565
181	0xbd78fa14	-0.060785368
182	0x3c795b6f	0.015219553
183	0x3cad32e6	0.021142434
184	0xbc52df36	-0.0128706
185	0x3a8f9170	0.0010953378
186	0x3b157e20	0.0022810772
187	0x3d2d10c3	0.042252313
188	0x3d2ed31b	0.042681795
189	0xbcb955ca	-0.022623915
190	0xbcdf35ba	-0.027247299
191	0xbd1aa68e	-0.037756495
192	0x3c79c3e4	0.015244458
193	0x3d0a1199	0.03370819
194	0xbd2f2c0b	-0.042766612
195	0xbd93383c	-0.0718846
196	0x3ca16606	0.019701969
197	0xbd003800	-0.031303406
198	0xbcc4396a	-0.023953158
199	0xbd36f82b	-0.044670265
200	0x3c72c264	0.014816854
201	0x3c7dbd4c	0.015487026
202	0xbc16090c	-0.00915743
203	0xbd0cd19e	-0.034379594
204	0x3ba24000	0.004951477
205	0xbc08c6ea	-0.008348206
206	0x3b31d0e0	0.0027132556
207	0xbcc20eec	-0.023688756
208	0xbd3a190a	-0.045434035
209	0xbc9ca3ab	-0.019121012
210	0xbd00b1f4	-0.03141971
211	0xbd86895d	-0.06569169
212	0xbd633bc3	-0.055476915
213	0x3d25f59f	0.040517446
214	0x3c67b984	0.014143351
215	0x3d2f163f	0.042745825
216	0xbcfaf6b0	-0.030635208
217	0xbd361254	-0.044451073
218	0xbcc4c780	-0.02402091
219	0x3d3727b9	0.044715617
220	0xbcd2fd87	-0.025755657
221	0xbd46a502	-0.048497207
222	0xbcfffdcb	-0.031248948
223	0x3bf87500	0.007582307
224	0xbc80bf25	-0.015716145
225	0x3c80b572	0.01571152
226	0x3d3314c9	0.043720994
227	0xbd09d324	-0.033648625
228	0xbd2c1e05	-0.042020816
229	0xbd2eeb4b	-0.04270486
230	0x3d2c434f	0.042056378
231	0x3c8dcf72	0.017310832
232	0xbd80111b	-0.062532626
233	0xbc2cdda8	-0.010550894
234	0xbcad8e7d	-0.021186108
235	0xbc90284f	-0.017597346
236	0xbd9457c6	-0.07243304
237	0xbd18b4e4	-0.037281886
238	0x3bc92b28	0.006139178
239	0x3b72b87a	0.0037036226
240	0xbd64cfe5	-0.055862326
241	0x3d061141	0.0327313
242	0xbd52d2ec	-0.051470682
243	0xbd1c78d5	-0.038201172
244	0x3bb1bbec	0.0054240134
245	0x3be38f40	0.006944567
246	0xbccf3606	-0.025294315
247	0x3c8c8981	0.01715541
248	0xbcdf68f7	-0.02727173
249	0xbc8f4c26	-0.017492365
250	0xbb76d5b0	-0.0037663989
251	0xbc9bdfa0	-0.019027531
252	0x3c803132	0.015648458
253	0xbd0f2400	-0.03494644
254	0x3c59be00	0.013289928
255	0x3d0f4abb	0.034983378

layer_2.bias f4 [300]
0	0xbd12f8b9	-0.03588173
1	0xbd3d0996	-0.04615172
2	0x3b0db97b	0.0021625448
3	0xbd916acc	-0.07100448
4	0x3ca5b2a8	0.020226792
5	0xbd2b37d1	-0.041801278
6	0xbd3f8872	-0.046760984
7	0xbb2be604	-0.002622963
8	0xbdd80cf8	-0.105493486
9	0xbd63f474	-0.05565305
10	0x3f1baae9	0.60807663
11	0x3d291bcf	0.041286286
12	0xbcda356e	-0.026636805
13	0x3be12aff	0.0068715806
14	0x3c202a8b	0.009775768
15	0xbe4fd930	-0.20297694
16	0x3a7e4194	0.0009699103
17	0xbd1776ac	-0.03697841
18	0xbc6fbe27	-0.014632738
19	0xbda0cdc4	-0.07851747
20	0xbe313599	-0.17305602
21	0xbe1aee22	-0.15129903
22	0x3e17be0f	0.14818595
23	0xbc89c92b	-0.016819557
24	0xbccab32f	-0.024743645
25	0xbc838c2c	-0.01605805
26	0xbcd845b3	-0.026400423
27	0x3c4811ea	0.012211302
28	0xbc90b654	-0.017665066
29	0x3eb28b80	0.34872055
30	0x3caec577	0.021334393
31	0xbe1457a0	-0.14486551
32	0xbcd205b3	-0.025637483
33	0x3c914fa5	0.017738173
34	0xbd130dfd	-0.035902012
35	0x3c28ff33	0.0103147505
36	0xbd960b09	-0.073263235
37	0xbd1e66ad	-0.038672138
38	0xbb64ccaa	-0.0034912028
39	0xbc87fa29	-0.016598778
40	0xbd945364	-0.07242468
41	0x3ee62850	0.4495263
42	0x3c6968bf	0.014246165
43	0xbd9d7b95	-0.07689587
44	0x3d1145b9	0.035466883
45	0xbbf0705d	-0.0073376135
46	0xbe587945	-0.2114001
47	0xbd48aec8	-0.04899481
48	0xbdab7864	-0.08372572
49	0xbd8a081f	-0.0673983
50	0xbd2f0e59	-0.042738292
51	0xbdb57a12	-0.08861174
52	0xbd72041f	-0.05908596
53	0x3f08094e	0.531392
54	0xbd162ad7	-0.03666195
55	0xbd3e154f	-0.04640704
56	0xbb45a3cf	-0.0030157452
57	0x3e915c9d	0.2839097
58	0xbd9063d4	-0.07050291
59	0xbc0cb05d	-0.00858697
60	0xbc5cd012	-0.013477342
61	0xbe85e4ba	-0.26151067
62	0x3ecc3730	0.39885855
63	0x3ed4eddf	0.4158773
64	0xbd0bda57	-0.034143772
65	0xbe12daf7	-0.14341341
66	0x3f31557a	0.6927105
67	0xbe59604d	-0.21228142
68	0xbdb544c8	-0.088510096
69	0xbd74838a	-0.059695758
70	0x3d186d2c	0.03721349
71	0xbd892401	-0.0669632
72	0x3e334cf2	0.17509821
73	0x3b99197d	0.004672228
74	0xbd3f4e79	-0.046705697
75	0x3c80781a	0.015682269
76	0x3c5a2a64	0.013315771
77	0xbd4ced80	-0.050031185
78	0xbe71b959	-0.23605861
79	0xbcf022be	-0.029313441
80	0x3e9d7893	0.30756053
81	0xbd2307d5	-0.03980239
82	0xbd71f05e	-0.059067123
83	0xbdd0de12	-0.101986066
84	0xbd84e745	-0.06489424
85	0xba9d6f42	-0.0012011307
86	0xbc075bee	-0.008261664
87	0xbc45435f	-0.012039988
88	0xbc618182	-0.013763787
89	0xbd88083b	-0.06642195
90	0xbd90cae9	-0.07069952
91	0xbd813ae6	-0.06310062
92	0xbdace91c	-0.084428996
93	0xbd23e431	-0.040012542
94	0x3cd6c345	0.026216159
95	0xbdc8fbb6	-0.09813635
96	0x3ec4ae9f	0.38414475
97	0xbcb280e8	-0.021789983
98	0x3d863704	0.06553462
99	0xbda74f73	-0.081694506
100	0xbcdc95ae	-0.026926842
101	0xbd009b41	-0.03139806
102	0x3e280231	0.16407086
103	0xbd200fbe	-0.039077513
104	0x3c305c64	0.010764215
105	0x3c6b9c53	0.014380532
106	0xbc647d69	-0.013945916
107	0xbd0f9b44	-0.035060182
108	0xbb2019bb	-0.00244294
109	0x3e22fa0d	0.159157
110	0xbd8555c0	-0.06510496
111	0xbd1522d0	-0.036410153
112	0x3e9552ff	0.29164883
113	0xbd847d74	-0.06469241
114	0xbc98f404	-0.018671043
115	0xbc1477f0	-0.009061798
116	0xbe3c65bc	-0.18398184
117	0xbd4eedc1	-0.05051971
118	0xbd3cc290	-0.046083987
119	0x3c0aa860	0.008462995
120	0xbd7b7d61	-0.061398868
121	0xbd8e2a46	-0.06941657
122	0xbce56cdf	-0.028006015
123	0x3b75f2cd	0.0037528754
124	0x3c4de1aa	0.01256601
125	0xbcfdef2e	-0.030997839
126	0x3dc77c1f	0.09740471
127	0xbc9c8125	-0.01910455
128	0xbd613885	-0.05498554
129	0xbd292323	-0.041293275
130	0xbd5cec5c	-0.053936347
131	0xbd745f91	-0.05966145
132	0xbe82fd4b	-0.25583872
133	0x3c97a306	0.018510353
134	0x3c916e9f	0.017752944
135	0x3e4a06ab	0.19729106
136	0xbd38194e	-0.044946007
137	0xbd5d1ae9	-0.05398074
138	0x3f18ac74	0.5963814
139	0x3bdb1155	0.0066854157
140	0xbca81e08	-0.020522133
141	0xbd8629ab	-0.06550916
142	0xbe0b06e1	-0.13576843
143	0xbd91c69b	-0.07117959
144	0xbd5ecb1d	-0.054392923
145	0x3b67b024	0.003535279
146	0x3c71c1aa	0.014755646
147	0x3cc6be85	0.024260769
148	0x3c9e61bd	0.019333715
149	0xbd7aa59e	-0.0611931
150	0xbd4e87ce	-0.050422482
151	0xbd5c2bbd	-0.05375265
152	0xbd1bd28b	-0.038042586
153	0xbc294ec7	-0.010333723
154	0x3c2c63ca	0.010521838
155	0xbbc13af4	-0.0058969203
156	0xbb8de725	-0.004330533
157	0xbe165936	-0.14682469
158	0x3e6a465f	0.22878407
159	0x3f233c22	0.6376363
160	0xbd5a179c	-0.053245172
161	0xbc12e21d	-0.008965042
162	0xbe58d324	-0.21174294
163	0x3d09d5af	0.03365105
164	0xbd63a211	-0.05557448
165	0xbd12df54	-0.035857514
166	0x3e612708	0.21987545
167	0x3c7cadad	0.015422267
168	0xbcc8a503	-0.024492746
169	0xbd6fa356	-0.05850538
170	0xbd16b947	-0.036797788
171	0x3e85a53b	0.26102623
172	0xbd9bc424	-0.0760577
173	0xbd37f50e	-0.044911437
174	0xbcdc34a7	-0.026880575
175	0xbcf93494	-0.030420579
176	0xbd64b14c	-0.055833146
177	0x3c500c53	0.012698251
178	0x3c00e820	0.007867843
179	0xbd2fd517	-0.042927828
180	0xbda1fca9	-0.07909519
181	0xbca23f7e	-0.019805666
182	0x3d963ca7	0.07335787
183	0xbd9b5c5e	-0.07585977
184	0x3eb0e144	0.34546864
185	0x3bdc9850	0.0067320243
186	0xbcf847b7	-0.030307634
187	0x3b2b6266	0.002615118
188	0xbc98652d	-0.018602932
189	0xbd0d073e	-0.034430735
190	0xbdb220aa	-0.086976364
191	0x3dbb2c36	0.09139292
192	0x3c96ba96	0.018399518
193	0x3cb7f468	0.02245541
194	0xbd5d6f7f	-0.05406141
195	0xbc03c38d	-0.008042228
196	0xbdf014c1	-0.117227085
197	0xbc85ece3	-0.016348308
198	0x3bbd87c4	0.005784007
199	0x3ddf6d0b	0.1090947
200	0xbd379bdd	-0.044826377
201	0x3ea9ab66	0.3313858
202	0xbca685fc	-0.02032756
203	0xbd2d3b53	-0.042292904
204	0x3cad47ce	0.021152403
205	0x3a90e235	0.0011053743
206	0x39ccf0bc	0.00039089273
207	0x3ef1f1f1	0.472549
208	0x3ca5e921	0.020252766
209	0x3de5c72d	0.112196304
210	0xbacf4d39	-0.0015815861
211	0xbcae969a	-0.021312047
212	0xbcc8a540	-0.02449286
213	0xbd2e1e44	-0.042509332
214	0x3d2224f3	0.03958602
215	0xbcc8368d	-0.024440074
216	0x3c91e01a	0.017807055
217	0xbc3f1343	-0.011662307
218	0xbc3b3797	-0.011426828
219	0x3d30ddba	0.043180205
220	0x3f0a00e9	0.5390764
221	0xbbda1678	-0.0066555105
222	0x3e4ca335	0.19984134
223	0x3edfc99b	0.437085
224	0x3d190a2b	0.037363213
225	0x3d89496b	0.067034565
226	0x3e434108	0.19067776
227	0x3c44e6eb	0.012017946
228	0x3cb84cdb	0.022497585
229	0xbd8d9616	-0.06913392
230	0xbc7dd4f0	-0.015492663
231	0xbd69c768	-0.057074934
232	0xbd5cf6ab	-0.05394618
233	0x3f286cbb	0.6579091
234	0x3e0e8dde	0.13921306
235	0x3c86ae65	0.01644058
236	0xbc64a34f	-0.013954951
237	0xbd862c38	-0.06551403
238	0xbd5480f5	-0.051880796
239	0xbd1ccb81	-0.038280014
240	0x3dbe58c3	0.09294274
241	0xbc47e376	-0.012200227
242	0xbca73fe0	-0.0204162
243	0xbd6c520b	-0.05769543
244	0xbd0f1543	-0.034932386
245	0xbd277db3	-0.04089136
246	0x3e160f67	0.14654313
247	0xbe22fd01	-0.15916826
248	0xbd5d6df2	-0.05405993
249	0xbcfcdb3a	-0.030866254
250	0x398e5182	0.0002714508
251	0xbcbd7b0d	-0.023129964
252	0xbdb63168	-0.08896142
253	0x3cb67c9f	0.02227622
254	0xbd9737d7	-0.073836975
255	0x3cc36d48	0.02385582

layer_3.weight f4 [1, 300]
0	0x3c9fa6ce	0.019488718
1	0xbc95ed06	-0.018301498
2	0x3d2986c4	0.04138829
3	0x3c9b8c46	0.018987786
4	0xbc1a8ccd	-0.009432984
5	0x3a839072	0.0010037555
6	0x3d43c02e	0.0477907
7	0x3b22870d	0.0024799735
8	0x3c9468bb	0.018116346
9	0x3ba28bfc	0.004960535
10	0xbd2f4484	-0.04278995
11	0xbb943326	-0.004522699
12	0xbc8eb513	-0.017420327
13	0x3c16d1c6	0.009205287
14	0xbc1ff0cf	-0.009762003
15	0x3df548b5	0.119767584
16	0xbc85e785	-0.016345749
17	0x3bb73bee	0.005591861
18	0xbcd4acb4	-0.025961258
19	0x3c17910e	0.009250892
20	0x3b739917	0.0037170106
21	0xbd6c1c59	-0.057644222
22	0x3a69106f	0.00088906934
23	0xbd0a9a1d	-0.03383838
24	0xbaba01b1	-0.0014191178
25	0xbcbae8b6	-0.022816043
26	0x3c332fca	0.010936687
27	0xbcaddae6	-0.021222543
28	0xbbee3609	-0.007269625
29	0xbd2ace3f	-0.041700598
30	0x3cd0a9fb	0.025471678
31	0x3e5eb52f	0.21748804
32	0x3d0c7e5e	0.0343002
33	0xbd1559d3	-0.036462616
34	0x3cd10a93	0.025517737
35	0x3b95cfa7	0.004571873
36	0x3b77a463	0.003778719
37	0x3ca77f0c	0.020446323
38	0x3c024147	0.007950134
39	0xbcefb41b	-0.029260686
40	0xbbf9097d	-0.007600008
41	0xbc667f6c	-0.014068466
42	0x3cf49f81	0.029861214
43	0x3a722eec	0.0009238559
44	0xbc240c48	-0.010012694
45	0x3cc4573e	0.023967382
46	0xbc88c33e	-0.016694661
47	0x3c347b2f	0.011015697
48	0x3c9f1395	0.019418517
49	0x3c8a4338	0.016877756
50	0x3ce8797c	0.02837824
51	0x3c2d2eb4	0.010570217
52	0x3b7d4403	0.0038645274
53	0xbd226c16	-0.03965386
54	0x3c33c05f	0.010971158
55	0x3ce51e7c	0.027968638
56	0x3d384ef5	0.044997174
57	0x3b768494	0.0037615644
58	0xbcaa1371	-0.020761224
59	0xbc99eb13	-0.01878885
60	0x3ab2b27d	0.0013633516
61	0x3ea0baa9	0.3139241
62	0xbcc9b253	-0.024621164
63	0xbd2301ca	-0.039796628
64	0xbc8c952f	-0.01716098
65	0x3c13eca3	0.009028587
66	0xbd574e9e	-0.05256521
67	0x3c240fee	0.010013564
68	0x3cf408e7	0.029789401
69	0x3ac39fa9	0.0014924902
70	0x3be42c97	0.0069633233
71	0x3ce39d17	0.027784867
72	0x3b692e43	0.0035580553
73	0x3bab8ada	0.0052350583
74	0xbcaa3a6e	-0.020779815
75	0xbd43e959	-0.04782996
76	0xbb713e67	-0.0036810876
77	0x3cb1c54a	0.02170052
78	0xbc5d7832	-0.013517426
79	0x3b08b546	0.002086
80	0xbc8caa59	-0.017171072
81	0xbcd395f5	-0.025828341
82	0x3ba91a50	0.0051606074
83	0xbb0f2f43	-0.0021848239
84	0xb8d5e6d8	-0.000101996295
85	0xbac42f9a	-0.00149678
86	0x3c1a7815	0.009428044
87	0xbbef1b33	-0.0072969436
88	0x3ca9e845	0.020740638
89	0x3bc8b9c2	0.0061256597
90	0x3cb84690	0.022494584
91	0x3c40ec62	0.011775108
92	0xbc0a263d	-0.008431968
93	0xbcd86d21	-0.026419224
94	0x39fa6c8a	0.00047764584
95	0x3d42538e	0.047442965
96	0x397598ad	0.00023421897
97	0xb8c93c01	-9.5956035e-05
98	0xbc8d54c0	-0.017252326
99	0xbc037122	-0.008022578
100	0x3c179ca8	0.009253658
101	0x3b22c787	0.0024838166
102	0xbc7c7d88	-0.015410788
103	0x3d22a3b0	0.039706886
104	0xbd3ba2ac	-0.045809433
105	0x3b0188c1	0.001976535
106	0xbcb76c8b	-0.022390625
107	0x3cb93f82	0.02261329
108	0x3b82912b	0.0039845905
109	0xbcd06221	-0.025437417
110	0x3c668792	0.014070408
111	0x3c4b3eb1	0.0124050835
112	0xbc0a61c4	-0.008446161
113	0xba163ea4	-0.000573138
114	0xbd3e3138	-0.046433657
115	0xbcc86325	-0.024461338
116	0xbb090328	-0.0020906422
117	0x39345928	0.00017199351
118	0xbcb63c88	-0.02224566
119	0x3d13588a	0.03597311
120	0x3c82e108	0.015976444
121	0x3d15a9e4	0.036538973
122	0x3c03813a	0.0080264155
123	0xbb9a92cf	-0.004717208
124	0xbd088de7	-0.033338454
125	0xbbad045b	-0.00528006
126	0x3c4492b7	0.01199787
127	0x3c14833a	0.00906449
128	0x3cab7aaa	0.020932514
129	0x3cd423a5	0.025895903
130	0x3a172e08	0.0005767052
131	0x3cf08b4c	0.029363297
132	0x3e5644cb	0.2092468
133	0x3c349e50	0.011024073
134	0x3c0847eb	0.008317928
135	0x3c60d6e8	0.013723113
136	0x3c841d2f	0.016127197
137	0x38794291	5.942822e-05
138	0xbd3969a0	-0.045266747
139	0x3d2a1162	0.041520484
140	0xbbb419ec	-0.005496254
141	0xbc0ff33d	-0.00878602
142	0x3b00aaba	0.001963301
143	0x3cdde6a6	0.02708752
144	0x3bd326ec	0.006443849
145	0xbb879cdb	-0.0041385717
146	0xbc9913ce	-0.018686201
147	0x3ce9b169	0.028526979
148	0xbc765dc2	-0.015037002
149	0xbc5a1749	-0.013311216
150	0x3bc8adc5	0.0061242306
151	0xbc683bbb	-0.014174397
152	0x3d00bd0c	0.03143029
153	0xba88484f	-0.0010397526
154	0xbc13f65b	-0.009030904
155	0x3c245e47	0.010032243
156	0x3c208e8b	0.00979961
157	0x3cc8eb83	0.024526363
158	0x3c72c02b	0.014816324
159	0xbd2d3a8b	-0.04229216
160	0x3af531d1	0.0018706863
161	0x3c78331d	0.015148905
162	0x3ca6e5d5	0.020373264
163	0xbc21cbe0	-0.009875268
164	0xbcca222e	-0.024674501
165	0x3cdd00cd	0.02697792
166	0x3b87dc1f	0.0041461135
167	0xbcc55ba5	-0.024091551
168	0x3b401829	0.0029311276
169	0x3cdc6b7f	0.026906727
170	0xb9c137b5	-0.00036853334
171	0xbd05ce59	-0.03266749
172	0xbbcf1cde	-0.00632058
173	0x3c787b8b	0.015166174
174	0xbcce9a2a	-0.025219996
175	0xbd41e43b	-0.0473368
176	0x3c5100c1	0.012756527
177	0x3b3bd3d6	0.00286602
178	0x3d34ed9b	0.04417191
179	0x3ceb0453	0.028688585
180	0x3c92234f	0.017839102
181	0x3bdfba3c	0.006827621
182	0xbcb15c8f	-0.02165058
183	0xbccadce1	-0.024763526
184	0xbc56548d	-0.013081682
185	0x3c35b3f3	0.0110902665
186	0x3c2eec04	0.010676388
187	0x3abb0c5c	0.0014270651
188	0xbc1df4a7	-0.009640849
189	0xbd4e3b25	-0.050349373
190	0x3cc868c4	0.024464019
191	0x3c9f0e12	0.019415889
192	0x3ca71b95	0.020398894
193	0xbcea0c2e	-0.02857026
194	0xbc46c258	-0.012131296
195	0x3d2e29cc	0.04252033
196	0x3ca67b95	0.0203226
197	0xbc805044	-0.015663274
198	0x3c8838c2	0.016628627
199	0xbbaaf5f5	-0.0052173086
200	0xba03a4ad	-0.0005021792
201	0xbcaf7bf0	-0.021421403
202	0x3b891f28	0.0041846223
203	0xbc9596d2	-0.018260393
204	0xbb493263	-0.00307002
205	0xbbae46e6	-0.0053185103
206	0x3d16aa82	0.036783703
207	0xbd0a3056	-0.033737503
208	0x3ce7317a	0.028221834
209	0x3a5351af	0.0008061183
210	0x396713cd	0.00022037253
211	0x3c9dbb07	0.01925422
212	0x3cd97967	0.026547147
213	0x3cd0e333	0.025498962
214	0xbca8d381	-0.020608665
215	0xbca1e878	-0.01976417
216	0xbc800c8b	-0.015630981
217	0x3cce9d7b	0.025221577
218	0xbc83ee13	-0.016104734
219	0x3b913845	0.0044317567
220	0xbd65d57b	-0.056111794
221	0x3b113702	0.0022158031
222	0xbb2ac411	-0.0026056806
223	0xbca870e8	-0.02056165
224	0x3ce2c3ca	0.02768125
225	0xbb8edeb9	-0.0043600467
226	0xbbb02f37	-0.005376722
227	0x3bda617c	0.006664453
228	0x3d059833	0.03261585
229	0xbcbcb4a9	-0.023035364
230	0x3aa3e54b	0.0012504248
231	0x3bcfbf6d	0.0063399584
232	0x3c909aec	0.017651998
233	0xbcdaece7	-0.026724292
234	0xbc2e4155	-0.010635694
235	0x3bf076aa	0.0073383646
236	0x3bbbffcb	0.00573728
237	0x3b3dc2ae	0.002895515
238	0x3c0a2401	0.008431436
239	0xbb229735	-0.0024809365
240	0x3c6a1cf0	0.014289126
241	0xbc583904	-0.013197187
242	0xbc20fa98	-0.009825371
243	0x3c31aaf3	0.01084398
244	0xbce36a6b	-0.027760705
245	0x3a86c730	0.0010282751
246	0x3d0c80ab	0.034302395
247	0xbb0ece1c	-0.0021790331
248	0x3b8c1bc9	0.004275773
249	0xbcbfe743	-0.023425704
250	0x3cc4482d	0.023960197
251	0x3ce3eccb	0.027822873
252	0x3cba5d41	0.022749545
253	0xba8e7a2c	-0.001087015
254	0x3c51d92c	0.0128081255
255	0x3c587b7e	0.013213037

layer_4.weight f4 [400, 8]
0	0x3dd98805	0.10621647
1	0x3e23156b	0.15926139
2	0xbea3e748	-0.3201239
3	0x3db8e312	0.09027685
4	0x3e904e22	0.2818461
5	0x3e6db678	0.23214138
6	0x3d0415ec	0.03224747
7	0x3f1ccf19	0.61253506
8	0xbe41fb94	-0.18943626
9	0xbd438318	-0.047732443
10	0x3dc335ef	0.095317714
11	0x3d5454c6	0.05183866
12	0x3efea5c4	0.49735844
13	0x3eaf92b1	0.34291604
14	0xbee0731b	-0.43837819
15	0x3e92b1c4	0.2865125
16	0xbdc80ab4	-0.097676665
17	0xbea733fd	-0.3265685
18	0xbd344ed0	-0.044020474
19	0x3e6a2db6	0.22869
20	0x3e5c31d6	0.21503386
21	0x3de45a6c	0.11150059
22	0x3e89b69b	0.2689713
23	0xbdf21874	-0.1182107
24	0x3c956b12	0.018239532
25	0x3deb098e	0.11476432
26	0xbe2a68f2	-0.16641596
27	0xbe26600f	-0.16247581
28	0x3b974ffb	0.0046176887
29	0xbeb2107d	-0.34778205
30	0xbfa95fac	-1.3232322
31	0x3f1fb36d	0.62383157
32	0xbf9c9046	-1.2231529
33	0x3e80569d	0.2506608
34	0xbdd43559	-0.10361738
35	0xbcdacb14	-0.026708163
36	0xbeb3e0dd	-0.35132495
37	0x3f5e5523	0.8684866
38	0x3d73c986	0.05951836
39	0xbfa083ad	-1.2540184
40	0xbe8361dc	-0.25660598
41	0xbe3d4585	-0.18483551
42	0xbdb70d44	-0.08938077
43	0xbe40ba63	-0.18821101
44	0xbce59140	-0.028023362
45	0xbe223914	-0.15842086
46	0xbe2a7167	-0.16644822
47	0x3e0b0622	0.13576558
48	0x3cbd16c8	0.023082152
49	0xbe9140c5	-0.28369728
50	0xbe0f4b4a	-0.13993564
51	0xbe8e3167	-0.27772066
52	0x3ac21023	0.0014805835
53	0xbf035305	-0.5129855
54	0xbd1ebcd7	-0.03875431
55	0xbdaa9a56	-0.083302185
56	0xbe5789fe	-0.21048734
57	0xbe82cefb	-0.2554854
58	0x3e3fcfb4	0.18731576
59	0xbd81a510	-0.06330311
60	0x3d269a73	0.040674638
61	0x3ef18d63	0.47178182
62	0x3e702567	0.23451768
63	0xbe97b49b	-0.2962998
64	0xbc975c80	-0.018476725
65	0xbf1058c5	-0.5638545
66	0x3dd0e413	0.10199752
67	0xbecac0a6	-0.39600104
68	0xbe44f2fc	-0.19233316
69	0xbeb54f9b	-0.35412297
70	0x3dfb03f6	0.12256615
71	0xbf0e91e9	-0.5569139
72	0xbd9236c9	-0.07139356
73	0x3e932b9b	0.28744206
74	0xbe552495	-0.20814736
75	0xbeaabd80	-0.33347702
76	0x3f16d723	0.5892202
77	0xbe53c44b	-0.20680349
78	0xbe613b6c	-0.21995324
79	0xbe01c06d	-0.12671061
80	0xbe04fa3b	-0.1298608
81	0xbe3b5b19	-0.1829647
82	0x3e871c13	0.26388606
83	0x3dabb6a9	0.08384449
84	0x3de1d89d	0.11027644
85	0x3eafe5a0	0.34354877
86	0x3e4c383b	0.19943325
87	0x3db48a0d	0.088153936
88	0xbe367a0f	-0.17819999
89	0x3bed3e80	0.0072401166
90	0xbe6012c7	-0.21882163
91	0x3e348b82	0.17631343
92	0x3df2ca8c	0.11855039
93	0xbe0f390e	-0.13986608
94	0x3e92e3e7	0.286895
95	0x3e055dd6	0.13024077
96	0x3cd39ced	0.025831664
97	0xbe8fc38f	-0.28078887
98	0x3e405146	0.18781003
99	0xbd4b1d0d	-0.04958825
100	0xbe51e993	-0.20499258
101	0xbe9aab99	-0.30209044
102	0xbe86b8c3	-0.26312837
103	0xbea46f7d	-0.3211631
104	0x3ba53bf7	0.0050425488
105	0x3e4024a8	0.18763983
106	0xbe8c7436	-0.27432412
107	0x3e569b12	0.20957592
108	0x3f14a017	0.5805678
109	0xbf34ecd8	-0.70673895
110	0xbe8a55f8	-0.27018714
111	0xbe835856	-0.25653332
112	0x3b3ef892	0.0029139859
113	0xbe01a95c	-0.12662262
114	0x3d2f71cb	0.04283313
115	0xbdb4e632	-0.08832969
116	0xbe0c441b	-0.13697855
117	0x3e550bb7	0.2080525
118	0x3ea854ac	0.328771
119	0xbe2cb8e7	-0.1686741
120	0xbea2e726	-0.31816977
121	0xbd2c6676	-0.042089902
122	0xbe19445d	-0.14967485
123	0x3e99900f	0.2999272
124	0xbe7c0600	-0.24611664
125	0x3e308a5a	0.17240277
126	0x3dc57734	0.09641877
127	0xbe655ea8	-0.2239939
128	0x3dbc2e8b	0.09188565
129	0xbe9d11f9	-0.30677775
130	0xbe83377f	-0.25628278
131	0x3eb24c19	0.34823683
132	0xbebc3c1f	-0.3676462
133	0xbf2a4f13	-0.6652691
134	0x3e8ff7ca	0.28118736
135	0xbf23e071	-0.64014345
136	0xbf182548	-0.59431887
137	0xbe3eca1d	-0.18631788
138	0x3cc256c4	0.023723014
139	0xbe79bf43	-0.24389367
140	0x3f32aaea	0.69792044
141	0x3f01d698	0.5071807
142	0xbf5df08b	-0.86695164
143	0xbeac95fa	-0.33708173
144	0x3caa668d	0.020800853
145	0xbe495d89	-0.19664587
146	0x3d8aa69c	0.067700595
147	0x3d7cb271	0.061693612
148	0xbf1ee6bc	-0.6207082
149	0xbd18c9b9	-0.037301753
150	0x3c988d2f	0.01862201
151	0xbe03c14f	-0.1286671
152	0xbf370edc	-0.7150705
153	0x3e8ce345	0.27517143
154	0xbe2660fe	-0.16247937
155	0x3edd0221	0.43165687
156	0x3e4709f7	0.19437395
157	0x3f29fdf1	0.6640311
158	0xbefc1723	-0.49236402
159	0xbe3ec9de	-0.18631694
160	0xbe8fdd2d	-0.2809843
161	0xbe25b126	-0.16180858
162	0xbe6314bd	-0.2217588
163	0xbe765836	-0.24057087
164	0xbc4c8fc0	-0.012485445
165	0x3c692620	0.014230281
166	0xbccb8700	-0.024844646
167	0xbea20d00	-0.31650543
168	0xbd3016fc	-0.04299067
169	0xbe8077f7	-0.25091526
170	0x3ea8ef27	0.3299496
171	0x3d9268c9	0.071488924
172	0x3db424dd	0.087960936
173	0x3dbfe0ce	0.0936905
174	0x3e8cbe3e	0.27488893
175	0xbebb1f7d	-0.3654746
176	0xbe589df1	-0.21154
177	0x3e7b39f2	0.24533823
178	0x3dc8b5ce	0.098003015
179	0x3e45988b	0.19296472
180	0x3d236d4a	0.039899148
181	0x3ea0be72	0.31395298
182	0x3e322d58	0.1740011
183	0xbe12059d	-0.14259954
184	0xbd22e734	-0.039771274
185	0x3ee9ec6c	0.45688188
186	0xbdb9eaee	-0.090780124
187	0x3d914ef4	0.07095137
188	0x3d11557b	0.03548191
189	0xbe5474de	-0.20747706
190	0xbe0c33ec	-0.13691682
191	0xbe96aef8	-0.29430366
192	0xbd8ea315	-0.06964699
193	0x3eab8c2c	0.3350538
194	0xbd851002	-0.06497194
195	0x3deae4ca	0.11469419
196	0xbefed998	-0.49775386
197	0xbed99122	-0.4249354
198	0xbcaa2b1d	-0.020772511
199	0x3e9a80bc	0.30176342
200	0xbf1524cd	-0.5825928
201	0xbe98c7a3	-0.2983981
202	0x3df87266	0.12131195
203	0xbd315234	-0.043291286
204	0xbd3a1fdd	-0.045440543
205	0x3ec93f10	0.39305925
206	0x3d337ebd	0.04382204
207	0xbf36cddf	-0.71407884
208	0xbebe5afd	-0.37178794
209	0x3dd3b482	0.103371635
210	0xbe6c4e67	-0.23076783
211	0xbe6a0605	-0.22853859
212	0xbf536bc3	-0.82586306
213	0x3f241ed4	0.6410954
214	0xbea3f11d	-0.32019892
215	0x3edd3ebf	0.43211934
216	0x3dd4dcd9	0.10393686
217	0xbed3c44a	-0.41360694
218	0xbebf45e4	-0.3735801
219	0x3db51435	0.08841745
220	0xbdd0acc3	-0.10189202
221	0xbf3a76d2	-0.72837555
222	0xbc9365e6	-0.017992925
223	0xbe70e948	-0.2352649
224	0xbd7fd478	-0.062458485
225	0xbdb97244	-0.090549976
226	0x3d9836bb	0.07432314
227	0xbb3eaa58	-0.0029093232
228	0xbe3dbfa4	-0.18530136
229	0x3d415ae4	0.04720582
230	0x3ebb789f	0.36615464
231	0xbbfa1d04	-0.0076328535
232	0x3deac820	0.11463952
233	0xbef261c9	-0.4734023
234	0x3c66a9dd	0.0140785845
235	0xbd8c6096	-0.0685436
236	0x3ee605e0	0.44926357
237	0xbe865bd4	-0.26241934
238	0x3ebddc10	0.37081957
239	0x3d915664	0.07096556
240	0xbddabdea	-0.106807545
241	0x3e8c9954	0.2746073
242	0x3e928645	0.28618065
243	0xbc912df1	-0.017722102
244	0xbdfed03f	-0.124420635
245	0xbe81a1db	-0.25318798
246	0xbeb4d3c1	-0.35317805
247	0x3d9b8389	0.07593448
248	0xbdfd3146	-0.12362914
249	0x3ea6f828	0.32611203
250	0x3de893c4	0.11356309
251	0x3d73bb29	0.05950466
252	0x3c7abda8	0.015304007
253	0xbe968ec9	-0.2940581
254	0xbd0fcd92	-0.035108157
255	0xbbab6418	-0.005230438

layer_4.bias f4 [400]
0	0xbaa06c42	-0.0012239295
1	0x3f199d60	0.6000576
2	0x3dcf7c24	0.101311
3	0x3e5f8f6d	0.21832056
4	0xbf01495c	-0.5050256
5	0x3e99bfe3	0.3002921
6	0xbea75e6b	-0.32689223
7	0x3f2d837b	0.6777875
8	0xbe52a94d	-0.20572396
9	0xbea21148	-0.3165381
10	0xbf5b8c13	-0.8576061
11	0x3eb423e3	0.3518363
12	0xbf55f7c1	-0.8358117
13	0xbf2cb811	-0.67468363
14	0x3f5c9543	0.86165255
15	0xbebef01a	-0.37292558
16	0xbeacf7fe	-0.33782953
17	0xbcc9fe54	-0.024657406
18	0x3f22471f	0.6338977
19	0xbe6e7f33	-0.2329071
20	0xbe9fd056	-0.31213635
21	0x3f37eaab	0.7184245
22	0xbf6a1f66	-0.9145416
23	0x3e5f01fd	0.21778102
24	0xbf29b71a	-0.66295016
25	0x3e2b8364	0.1674934
26	0xbe510903	-0.20413594
27	0xbe7a18a1	-0.24423458
28	0xbf047787	-0.51744884
29	0xbf4741f6	-0.77835023
30	0x3f1afc3a	0.6054112
31	0xbf6ac5a9	-0.91707855
32	0x3f59e101	0.85108954
33	0x3d07e6ae	0.033178978
34	0xbfa5ab1e	-1.2942846
35	0xbeb90b09	-0.36141232
36	0x3eebb55b	0.460368
37	0xbf58dfc1	-0.8471642
38	0x3ea38883	0.31940088
39	0xbf1aded7	-0.60496277
40	0x3f28566d	0.65756875
41	0xbe59746c	-0.21235818
42	0x3dcc988c	0.099900335
43	0xbe1f75ed	-0.15572329
44	0x3dd9ad0e	0.10628711
45	0x3f46821f	0.775423
46	0xbf27c1c3	-0.6553003
47	0xbf3ae3e9	-0.73004013
48	0xbccc559a	-0.024943162
49	0xbcf3b173	-0.0297477
50	0x3f841cc9	1.0321285
51	0xbbe9f080	-0.0071392655
52	0x3e459364	0.19294506
53	0x3e361759	0.17782344
54	0x3f854149	1.0410548
55	0xbed17b2a	-0.4091428
56	0x3e125d99	0.14293517
57	0x3f3a30c8	0.72730684
58	0xbc86e563	-0.016466802
59	0xbeaac2ef	-0.33351848
60	0xbe8d81f3	-0.27638206
61	0xbf6fcead	-0.9367474
62	0x3e90d028	0.2828381
63	0x3f31a600	0.6939392
64	0xbf7cf4ae	-0.9881085
65	0x3ea17b8c	0.3153957
66	0xbd76db8e	-0.060267977
67	0x3f3a777d	0.72838575
68	0x3e8b9d70	0.27268553
69	0xbd49c9a6	-0.049264573
70	0xbeb56381	-0.35427478
71	0x3f26ceb2	0.6515914
72	0xbd829f4a	-0.06378038
73	0xbeeac3da	-0.45852548
74	0xbf18e37f	-0.5972213
75	0xbe50f1fb	-0.20404808
76	0x3f578091	0.8418055
77	0xbe54bbc3	-0.2077475
78	0xbf3bb48f	-0.73322386
79	0x3eca5d7f	0.39524457
80	0xbec68b32	-0.38778073
81	0xbf36c968	-0.7140107
82	0xbe5cc819	-0.21560706
83	0x3cf4bc3b	0.029874912
84	0xbf67b862	-0.9051572
85	0x3ea9774d	0.33098832
86	0xbe810c51	-0.2520471
87	0x3f3024eb	0.6880633
88	0x3e3e006d	0.1855485
89	0xbf0c0684	-0.5469744
90	0x3f0a07b0	0.5391798
91	0x3f53d63c	0.8274877
92	0x3d5bab1f	0.05362999
93	0x3ecad87e	0.39618295
94	0xbdaa43fa	-0.08313747
95	0x3ee34165	0.4438583
96	0xbebb6b9d	-0.3660554
97	0x3f5c1d14	0.8598187
98	0xbf6da44b	-0.92828816
99	0xbea15801	-0.31512454
100	0x3df5afe5	0.1199644
101	0xbe28afc2	-0.16473296
102	0xbef33bfa	-0.47506696
103	0x3e1d31ed	0.15351076
104	0x3f1c6b5a	0.61101305
105	0xbe9a6e2a	-0.30162174
106	0x3f74ad12	0.95576584
107	0x3f2d8d79	0.67793995
108	0xbf53d399	-0.8274475
109	0xbf45cd12	-0.7726604
110	0x3f0872c6	0.5330013
111	0x3f1f5c9a	0.62250674
112	0x3f3dcbfd	0.74139386
113	0xbf5e8c56	-0.86932886
114	0xbe3366aa	-0.17519632
115	0xbe155968	-0.14584887
116	0xbe95942f	-0.29214618
117	0xbf5d6c1d	-0.8649309
118	0x3f5412da	0.82841265
119	0xbf02935d	-0.5100611
120	0xbf4e0706	-0.80479467
121	0x3f029172	0.5100318
122	0x3f405512	0.75129807
123	0xbea27ddd	-0.3173665
124	0xbeff4554	-0.4985758
125	0x3f4c5eba	0.7983204
126	0x3ee8f2ea	0.4549783
127	0xbdafc4c0	-0.08582449
128	0x3e843fcb	0.2582992
129	0xbf85fc81	-1.0467683
130	0x3ef56988	0.47932076
131	0x3f80eb98	1.0071898
132	0xbec37c2b	-0.3818067
133	0xbe87d212	-0.26527458
134	0xbf3473ff	-0.70489496
135	0xbeece475	-0.4626805
136	0x3f4ec570	0.80770016
137	0xbeefdd8c	-0.46848714
138	0xbf310f98	-0.6916442
139	0xbecca67f	-0.39970776
140	0x3f4fc3bc	0.8115804
141	0x3e232b87	0.15934573
142	0xbf40f46f	-0.75372976
143	0xbe469fc0	-0.19396877
144	0xbf727d07	-0.94722027
145	0x3efc6c71	0.49301484
146	0xbeba8523	-0.364297
147	0xbf569ffd	-0.8383787
148	0xbb865b71	-0.004100256
149	0x3e08233a	0.13294688
150	0x3d8c5029	0.06851227
151	0xbe41cd9c	-0.1892609
152	0x3f2524f9	0.6450954
153	0x3f32bb21	0.69816786
154	0xbf817ffd	-1.0117184
155	0xbe23d22b	-0.15998141
156	0xbf613e4e	-0.87985694
157	0xbf6c199c	-0.92226577
158	0xbd243158	-0.04008612
159	0x3ecc0496	0.3984725
160	0x3e6db353	0.23212938
161	0xbca6b470	-0.020349711
162	0xbe6174fb	-0.22017281
163	0xbf0528b4	-0.52015233
164	0xbe990b42	-0.29891402
165	0x3eabf239	0.3358324
166	0x3e5395c8	0.20662606
167	0xbf5318d0	-0.82459736
168	0x3edf5b90	0.43624544
169	0xbec3a362	-0.3821059
170	0x3f5544e7	0.8330826
171	0x3f245a52	0.6420032
172	0x3e81ffb7	0.25390407
173	0x3f3874b2	0.7205306
174	0xbe0505f5	-0.12990554
175	0xbf37d2fa	-0.718063
176	0x3f746adb	0.9547555
177	0x3f48e4fb	0.78474396
178	0x3e1eab30	0.1549499
179	0xbe571fa6	-0.21008167
180	0xbf200a1a	-0.62515414
181	0x3ea80dbd	0.3282298
182	0xbeb6da16	-0.3571326
183	0x3f4dc485	0.8037799
184	0xbf3c1a3a	-0.7347752
185	0xbf0b3215	-0.54373294
186	0xbed4d2ae	-0.41566986
187	0x3ea09ee7	0.31371233
188	0x3f7a6876	0.97815645
189	0x3eb664c3	0.3562375
190	0x3f30ae18	0.69015646
191	0xbf3f9266	-0.7483276
192	0x3e29f74d	0.16598244
193	0xbc404e3f	-0.011737405
194	0x3e7e77e1	0.24850418
195	0xbf4558f8	-0.7708888
196	0x3ead61c9	0.33863667
197	0xbdf451a0	-0.11929631
198	0xbe36ecd5	-0.17863782
199	0xbe565344	-0.20930201
200	0xbf45aba8	-0.7721505
201	0xbed30d35	-0.41221014
202	0x3f3da697	0.7408232
203	0xbec065e8	-0.37577748
204	0x3d95a532	0.07306899
205	0x3af44d1c	0.0018638703
206	0xbea3edfb	-0.32017502
207	0x3f03210c	0.512223
208	0x3e06cd6e	0.13164303
209	0xbf661cb9	-0.8988758
210	0xbe7c0a55	-0.24613316
211	0x3f0065e0	0.5015545
212	0xbf5f12d7	-0.8713812
213	0xbebd9d8d	-0.37034264
214	0xbe746940	-0.23868275
215	0xbf3c4492	-0.7354213
216	0xbe0760ba	-0.13220492
217	0xbf1e1250	-0.6174669
218	0xbe64ed2d	-0.223561
219	0x3f20c856	0.6280569
220	0x3f30d3eb	0.6907336
221	0x3e80bf02	0.25145727
222	0xbea936c6	-0.330496
223	0xbf435e95	-0.76316196
224	0x3f2dee2a	0.67941535
225	0xbf3fc412	-0.74908555
226	0xbeb3c8cd	-0.35114136
227	0xbf529187	-0.8225331
228	0x3ed006d9	0.40630224
229	0xbf3b9e1c	-0.7328813
230	0xbf1fafb7	-0.62377495
231	0xbf264843	-0.6495401
232	0x3f4d2369	0.80132157
233	0xbf4829f3	-0.7818901
234	0xbda4ee93	-0.08053317
235	0x3de106d0	0.109876275
236	0xbf56721a	-0.83767855
237	0x3f55921a	0.8342606
238	0xbf159e9b	-0.5844514
239	0xbb044c3a	-0.0020187036
240	0x3f57a0e5	0.8422988
241	0x3f30be0a	0.69039977
242	0xbf665b74	-0.89983296
243	0xbe47f917	-0.19528614
244	0xbe807f1a	-0.2509697
245	0xbf5a4311	-0.85258585
246	0x3e11dfaa	0.14245477
247	0x3f92925b	1.1450914
248	0xbf08c51d	-0.5342577
249	0x3e343ceb	0.17601363
250	0xbc0bc1a0	-0.0085300505
251	0xbdf4f380	-0.119605064
252	0x3d689bc7	0.056789186
253	0xbf12ba8b	-0.5731589
254	0x3eec4ed2	0.46153885
255	0xbee2f4cf	-0.443274
